…
2023-02-25 14:51:57,797 INFO Rank 1: Completed store-based barrier for key:store_based_barrier_key:1 with 8 nodes.
2023-02-25 14:52:00,391 INFO Checkpoint: loading from checkpoint exp/2_25_rnnt_bias_loss_2_class_both_more_layer_3word_finetune/10.pt for GPU
2023-02-25 14:52:06,146 INFO Checkpoint: loading from checkpoint exp/2_25_rnnt_bias_loss_2_class_both_more_layer_3word_finetune/10.pt for GPU
2023-02-25 14:52:11,157 INFO Epoch 11 TRAIN info lr 4e-08
2023-02-25 14:52:11,159 INFO using accumulate grad, new batch size is 4 times larger than before
Transducer(
  (encoder): ConformerEncoder(
    (global_cmvn): GlobalCMVN()
    (embed): Conv2dSubsampling4(
      (conv): Sequential(
        (0): Conv2d(1, 256, kernel_size=(3, 3), stride=(2, 2))
        (1): ReLU()
        (2): Conv2d(256, 256, kernel_size=(3, 3), stride=(2, 2))
        (3): ReLU()
      )
      (out): Sequential(
        (0): Linear(in_features=4864, out_features=256, bias=True)
      )
      (pos_enc): RelPositionalEncoding(
        (dropout): Dropout(p=0.1, inplace=False)
      )
    )
    (after_norm): LayerNorm((256,), eps=1e-05, elementwise_affine=True)
    (encoders): ModuleList(
      (0): ConformerEncoderLayer(
        (self_attn): RelPositionMultiHeadedAttention(
          (linear_q): Linear(in_features=256, out_features=256, bias=True)
          (linear_k): Linear(in_features=256, out_features=256, bias=True)
          (linear_v): Linear(in_features=256, out_features=256, bias=True)
          (linear_out): Linear(in_features=256, out_features=256, bias=True)
          (dropout): Dropout(p=0.1, inplace=False)
          (linear_pos): Linear(in_features=256, out_features=256, bias=False)
        )
        (feed_forward): PositionwiseFeedForward(
          (w_1): Linear(in_features=256, out_features=2048, bias=True)
          (activation): SiLU()
          (dropout): Dropout(p=0.1, inplace=False)
          (w_2): Linear(in_features=2048, out_features=256, bias=True)
        )
        (feed_forward_macaron): PositionwiseFeedForward(
          (w_1): Linear(in_features=256, out_features=2048, bias=True)
          (activation): SiLU()
          (dropout): Dropout(p=0.1, inplace=False)
          (w_2): Linear(in_features=2048, out_features=256, bias=True)
        )
        (conv_module): ConvolutionModule(
          (pointwise_conv1): Conv1d(256, 512, kernel_size=(1,), stride=(1,))
          (depthwise_conv): Conv1d(256, 256, kernel_size=(15,), stride=(1,), padding=(7,), groups=256)
          (norm): BatchNorm1d(256, eps=1e-05, momentum=0.1, affine=True, track_running_stats=True)
          (pointwise_conv2): Conv1d(256, 256, kernel_size=(1,), stride=(1,))
          (activation): SiLU()
        )
        (norm_ff): LayerNorm((256,), eps=1e-05, elementwise_affine=True)
        (norm_mha): LayerNorm((256,), eps=1e-05, elementwise_affine=True)
        (norm_ff_macaron): LayerNorm((256,), eps=1e-05, elementwise_affine=True)
        (norm_conv): LayerNorm((256,), eps=1e-05, elementwise_affine=True)
        (norm_final): LayerNorm((256,), eps=1e-05, elementwise_affine=True)
        (dropout): Dropout(p=0.1, inplace=False)
        (concat_linear): Identity()
      )
      (1): ConformerEncoderLayer(
        (self_attn): RelPositionMultiHeadedAttention(
          (linear_q): Linear(in_features=256, out_features=256, bias=True)
          (linear_k): Linear(in_features=256, out_features=256, bias=True)
          (linear_v): Linear(in_features=256, out_features=256, bias=True)
          (linear_out): Linear(in_features=256, out_features=256, bias=True)
          (dropout): Dropout(p=0.1, inplace=False)
          (linear_pos): Linear(in_features=256, out_features=256, bias=False)
        )
        (feed_forward): PositionwiseFeedForward(
          (w_1): Linear(in_features=256, out_features=2048, bias=True)
          (activation): SiLU()
          (dropout): Dropout(p=0.1, inplace=False)
          (w_2): Linear(in_features=2048, out_features=256, bias=True)
        )
        (feed_forward_macaron): PositionwiseFeedForward(
          (w_1): Linear(in_features=256, out_features=2048, bias=True)
          (activation): SiLU()
          (dropout): Dropout(p=0.1, inplace=False)
          (w_2): Linear(in_features=2048, out_features=256, bias=True)
        )
        (conv_module): ConvolutionModule(
          (pointwise_conv1): Conv1d(256, 512, kernel_size=(1,), stride=(1,))
          (depthwise_conv): Conv1d(256, 256, kernel_size=(15,), stride=(1,), padding=(7,), groups=256)
          (norm): BatchNorm1d(256, eps=1e-05, momentum=0.1, affine=True, track_running_stats=True)
          (pointwise_conv2): Conv1d(256, 256, kernel_size=(1,), stride=(1,))
          (activation): SiLU()
        )
        (norm_ff): LayerNorm((256,), eps=1e-05, elementwise_affine=True)
        (norm_mha): LayerNorm((256,), eps=1e-05, elementwise_affine=True)
        (norm_ff_macaron): LayerNorm((256,), eps=1e-05, elementwise_affine=True)
        (norm_conv): LayerNorm((256,), eps=1e-05, elementwise_affine=True)
        (norm_final): LayerNorm((256,), eps=1e-05, elementwise_affine=True)
        (dropout): Dropout(p=0.1, inplace=False)
        (concat_linear): Identity()
      )
      (2): ConformerEncoderLayer(
        (self_attn): RelPositionMultiHeadedAttention(
          (linear_q): Linear(in_features=256, out_features=256, bias=True)
          (linear_k): Linear(in_features=256, out_features=256, bias=True)
          (linear_v): Linear(in_features=256, out_features=256, bias=True)
          (linear_out): Linear(in_features=256, out_features=256, bias=True)
          (dropout): Dropout(p=0.1, inplace=False)
          (linear_pos): Linear(in_features=256, out_features=256, bias=False)
        )
        (feed_forward): PositionwiseFeedForward(
          (w_1): Linear(in_features=256, out_features=2048, bias=True)
          (activation): SiLU()
          (dropout): Dropout(p=0.1, inplace=False)
          (w_2): Linear(in_features=2048, out_features=256, bias=True)
        )
        (feed_forward_macaron): PositionwiseFeedForward(
          (w_1): Linear(in_features=256, out_features=2048, bias=True)
          (activation): SiLU()
          (dropout): Dropout(p=0.1, inplace=False)
          (w_2): Linear(in_features=2048, out_features=256, bias=True)
        )
        (conv_module): ConvolutionModule(
          (pointwise_conv1): Conv1d(256, 512, kernel_size=(1,), stride=(1,))
          (depthwise_conv): Conv1d(256, 256, kernel_size=(15,), stride=(1,), padding=(7,), groups=256)
          (norm): BatchNorm1d(256, eps=1e-05, momentum=0.1, affine=True, track_running_stats=True)
          (pointwise_conv2): Conv1d(256, 256, kernel_size=(1,), stride=(1,))
          (activation): SiLU()
        )
        (norm_ff): LayerNorm((256,), eps=1e-05, elementwise_affine=True)
        (norm_mha): LayerNorm((256,), eps=1e-05, elementwise_affine=True)
        (norm_ff_macaron): LayerNorm((256,), eps=1e-05, elementwise_affine=True)
        (norm_conv): LayerNorm((256,), eps=1e-05, elementwise_affine=True)
        (norm_final): LayerNorm((256,), eps=1e-05, elementwise_affine=True)
        (dropout): Dropout(p=0.1, inplace=False)
        (concat_linear): Identity()
      )
      (3): ConformerEncoderLayer(
        (self_attn): RelPositionMultiHeadedAttention(
          (linear_q): Linear(in_features=256, out_features=256, bias=True)
          (linear_k): Linear(in_features=256, out_features=256, bias=True)
          (linear_v): Linear(in_features=256, out_features=256, bias=True)
          (linear_out): Linear(in_features=256, out_features=256, bias=True)
          (dropout): Dropout(p=0.1, inplace=False)
          (linear_pos): Linear(in_features=256, out_features=256, bias=False)
        )
        (feed_forward): PositionwiseFeedForward(
          (w_1): Linear(in_features=256, out_features=2048, bias=True)
          (activation): SiLU()
          (dropout): Dropout(p=0.1, inplace=False)
          (w_2): Linear(in_features=2048, out_features=256, bias=True)
        )
        (feed_forward_macaron): PositionwiseFeedForward(
          (w_1): Linear(in_features=256, out_features=2048, bias=True)
          (activation): SiLU()
          (dropout): Dropout(p=0.1, inplace=False)
          (w_2): Linear(in_features=2048, out_features=256, bias=True)
        )
        (conv_module): ConvolutionModule(
          (pointwise_conv1): Conv1d(256, 512, kernel_size=(1,), stride=(1,))
          (depthwise_conv): Conv1d(256, 256, kernel_size=(15,), stride=(1,), padding=(7,), groups=256)
          (norm): BatchNorm1d(256, eps=1e-05, momentum=0.1, affine=True, track_running_stats=True)
          (pointwise_conv2): Conv1d(256, 256, kernel_size=(1,), stride=(1,))
          (activation): SiLU()
        )
        (norm_ff): LayerNorm((256,), eps=1e-05, elementwise_affine=True)
        (norm_mha): LayerNorm((256,), eps=1e-05, elementwise_affine=True)
        (norm_ff_macaron): LayerNorm((256,), eps=1e-05, elementwise_affine=True)
        (norm_conv): LayerNorm((256,), eps=1e-05, elementwise_affine=True)
        (norm_final): LayerNorm((256,), eps=1e-05, elementwise_affine=True)
        (dropout): Dropout(p=0.1, inplace=False)
        (concat_linear): Identity()
      )
      (4): ConformerEncoderLayer(
        (self_attn): RelPositionMultiHeadedAttention(
          (linear_q): Linear(in_features=256, out_features=256, bias=True)
          (linear_k): Linear(in_features=256, out_features=256, bias=True)
          (linear_v): Linear(in_features=256, out_features=256, bias=True)
          (linear_out): Linear(in_features=256, out_features=256, bias=True)
          (dropout): Dropout(p=0.1, inplace=False)
          (linear_pos): Linear(in_features=256, out_features=256, bias=False)
        )
        (feed_forward): PositionwiseFeedForward(
          (w_1): Linear(in_features=256, out_features=2048, bias=True)
          (activation): SiLU()
          (dropout): Dropout(p=0.1, inplace=False)
          (w_2): Linear(in_features=2048, out_features=256, bias=True)
        )
        (feed_forward_macaron): PositionwiseFeedForward(
          (w_1): Linear(in_features=256, out_features=2048, bias=True)
          (activation): SiLU()
          (dropout): Dropout(p=0.1, inplace=False)
          (w_2): Linear(in_features=2048, out_features=256, bias=True)
        )
        (conv_module): ConvolutionModule(
          (pointwise_conv1): Conv1d(256, 512, kernel_size=(1,), stride=(1,))
          (depthwise_conv): Conv1d(256, 256, kernel_size=(15,), stride=(1,), padding=(7,), groups=256)
          (norm): BatchNorm1d(256, eps=1e-05, momentum=0.1, affine=True, track_running_stats=True)
          (pointwise_conv2): Conv1d(256, 256, kernel_size=(1,), stride=(1,))
          (activation): SiLU()
        )
        (norm_ff): LayerNorm((256,), eps=1e-05, elementwise_affine=True)
        (norm_mha): LayerNorm((256,), eps=1e-05, elementwise_affine=True)
        (norm_ff_macaron): LayerNorm((256,), eps=1e-05, elementwise_affine=True)
        (norm_conv): LayerNorm((256,), eps=1e-05, elementwise_affine=True)
        (norm_final): LayerNorm((256,), eps=1e-05, elementwise_affine=True)
        (dropout): Dropout(p=0.1, inplace=False)
        (concat_linear): Identity()
      )
      (5): ConformerEncoderLayer(
        (self_attn): RelPositionMultiHeadedAttention(
          (linear_q): Linear(in_features=256, out_features=256, bias=True)
          (linear_k): Linear(in_features=256, out_features=256, bias=True)
          (linear_v): Linear(in_features=256, out_features=256, bias=True)
          (linear_out): Linear(in_features=256, out_features=256, bias=True)
          (dropout): Dropout(p=0.1, inplace=False)
          (linear_pos): Linear(in_features=256, out_features=256, bias=False)
        )
        (feed_forward): PositionwiseFeedForward(
          (w_1): Linear(in_features=256, out_features=2048, bias=True)
          (activation): SiLU()
          (dropout): Dropout(p=0.1, inplace=False)
          (w_2): Linear(in_features=2048, out_features=256, bias=True)
        )
        (feed_forward_macaron): PositionwiseFeedForward(
          (w_1): Linear(in_features=256, out_features=2048, bias=True)
          (activation): SiLU()
          (dropout): Dropout(p=0.1, inplace=False)
          (w_2): Linear(in_features=2048, out_features=256, bias=True)
        )
        (conv_module): ConvolutionModule(
          (pointwise_conv1): Conv1d(256, 512, kernel_size=(1,), stride=(1,))
          (depthwise_conv): Conv1d(256, 256, kernel_size=(15,), stride=(1,), padding=(7,), groups=256)
          (norm): BatchNorm1d(256, eps=1e-05, momentum=0.1, affine=True, track_running_stats=True)
          (pointwise_conv2): Conv1d(256, 256, kernel_size=(1,), stride=(1,))
          (activation): SiLU()
        )
        (norm_ff): LayerNorm((256,), eps=1e-05, elementwise_affine=True)
        (norm_mha): LayerNorm((256,), eps=1e-05, elementwise_affine=True)
        (norm_ff_macaron): LayerNorm((256,), eps=1e-05, elementwise_affine=True)
        (norm_conv): LayerNorm((256,), eps=1e-05, elementwise_affine=True)
        (norm_final): LayerNorm((256,), eps=1e-05, elementwise_affine=True)
        (dropout): Dropout(p=0.1, inplace=False)
        (concat_linear): Identity()
      )
      (6): ConformerEncoderLayer(
        (self_attn): RelPositionMultiHeadedAttention(
          (linear_q): Linear(in_features=256, out_features=256, bias=True)
          (linear_k): Linear(in_features=256, out_features=256, bias=True)
          (linear_v): Linear(in_features=256, out_features=256, bias=True)
          (linear_out): Linear(in_features=256, out_features=256, bias=True)
          (dropout): Dropout(p=0.1, inplace=False)
          (linear_pos): Linear(in_features=256, out_features=256, bias=False)
        )
        (feed_forward): PositionwiseFeedForward(
          (w_1): Linear(in_features=256, out_features=2048, bias=True)
          (activation): SiLU()
          (dropout): Dropout(p=0.1, inplace=False)
          (w_2): Linear(in_features=2048, out_features=256, bias=True)
        )
        (feed_forward_macaron): PositionwiseFeedForward(
          (w_1): Linear(in_features=256, out_features=2048, bias=True)
          (activation): SiLU()
          (dropout): Dropout(p=0.1, inplace=False)
          (w_2): Linear(in_features=2048, out_features=256, bias=True)
        )
        (conv_module): ConvolutionModule(
          (pointwise_conv1): Conv1d(256, 512, kernel_size=(1,), stride=(1,))
          (depthwise_conv): Conv1d(256, 256, kernel_size=(15,), stride=(1,), padding=(7,), groups=256)
          (norm): BatchNorm1d(256, eps=1e-05, momentum=0.1, affine=True, track_running_stats=True)
          (pointwise_conv2): Conv1d(256, 256, kernel_size=(1,), stride=(1,))
          (activation): SiLU()
        )
        (norm_ff): LayerNorm((256,), eps=1e-05, elementwise_affine=True)
        (norm_mha): LayerNorm((256,), eps=1e-05, elementwise_affine=True)
        (norm_ff_macaron): LayerNorm((256,), eps=1e-05, elementwise_affine=True)
        (norm_conv): LayerNorm((256,), eps=1e-05, elementwise_affine=True)
        (norm_final): LayerNorm((256,), eps=1e-05, elementwise_affine=True)
        (dropout): Dropout(p=0.1, inplace=False)
        (concat_linear): Identity()
      )
      (7): ConformerEncoderLayer(
        (self_attn): RelPositionMultiHeadedAttention(
          (linear_q): Linear(in_features=256, out_features=256, bias=True)
          (linear_k): Linear(in_features=256, out_features=256, bias=True)
          (linear_v): Linear(in_features=256, out_features=256, bias=True)
          (linear_out): Linear(in_features=256, out_features=256, bias=True)
          (dropout): Dropout(p=0.1, inplace=False)
          (linear_pos): Linear(in_features=256, out_features=256, bias=False)
        )
        (feed_forward): PositionwiseFeedForward(
          (w_1): Linear(in_features=256, out_features=2048, bias=True)
          (activation): SiLU()
          (dropout): Dropout(p=0.1, inplace=False)
          (w_2): Linear(in_features=2048, out_features=256, bias=True)
        )
        (feed_forward_macaron): PositionwiseFeedForward(
          (w_1): Linear(in_features=256, out_features=2048, bias=True)
          (activation): SiLU()
          (dropout): Dropout(p=0.1, inplace=False)
          (w_2): Linear(in_features=2048, out_features=256, bias=True)
        )
        (conv_module): ConvolutionModule(
          (pointwise_conv1): Conv1d(256, 512, kernel_size=(1,), stride=(1,))
          (depthwise_conv): Conv1d(256, 256, kernel_size=(15,), stride=(1,), padding=(7,), groups=256)
          (norm): BatchNorm1d(256, eps=1e-05, momentum=0.1, affine=True, track_running_stats=True)
          (pointwise_conv2): Conv1d(256, 256, kernel_size=(1,), stride=(1,))
          (activation): SiLU()
        )
        (norm_ff): LayerNorm((256,), eps=1e-05, elementwise_affine=True)
        (norm_mha): LayerNorm((256,), eps=1e-05, elementwise_affine=True)
        (norm_ff_macaron): LayerNorm((256,), eps=1e-05, elementwise_affine=True)
        (norm_conv): LayerNorm((256,), eps=1e-05, elementwise_affine=True)
        (norm_final): LayerNorm((256,), eps=1e-05, elementwise_affine=True)
        (dropout): Dropout(p=0.1, inplace=False)
        (concat_linear): Identity()
      )
      (8): ConformerEncoderLayer(
        (self_attn): RelPositionMultiHeadedAttention(
          (linear_q): Linear(in_features=256, out_features=256, bias=True)
          (linear_k): Linear(in_features=256, out_features=256, bias=True)
          (linear_v): Linear(in_features=256, out_features=256, bias=True)
          (linear_out): Linear(in_features=256, out_features=256, bias=True)
          (dropout): Dropout(p=0.1, inplace=False)
          (linear_pos): Linear(in_features=256, out_features=256, bias=False)
        )
        (feed_forward): PositionwiseFeedForward(
          (w_1): Linear(in_features=256, out_features=2048, bias=True)
          (activation): SiLU()
          (dropout): Dropout(p=0.1, inplace=False)
          (w_2): Linear(in_features=2048, out_features=256, bias=True)
        )
        (feed_forward_macaron): PositionwiseFeedForward(
          (w_1): Linear(in_features=256, out_features=2048, bias=True)
          (activation): SiLU()
          (dropout): Dropout(p=0.1, inplace=False)
          (w_2): Linear(in_features=2048, out_features=256, bias=True)
        )
        (conv_module): ConvolutionModule(
          (pointwise_conv1): Conv1d(256, 512, kernel_size=(1,), stride=(1,))
          (depthwise_conv): Conv1d(256, 256, kernel_size=(15,), stride=(1,), padding=(7,), groups=256)
          (norm): BatchNorm1d(256, eps=1e-05, momentum=0.1, affine=True, track_running_stats=True)
          (pointwise_conv2): Conv1d(256, 256, kernel_size=(1,), stride=(1,))
          (activation): SiLU()
        )
        (norm_ff): LayerNorm((256,), eps=1e-05, elementwise_affine=True)
        (norm_mha): LayerNorm((256,), eps=1e-05, elementwise_affine=True)
        (norm_ff_macaron): LayerNorm((256,), eps=1e-05, elementwise_affine=True)
        (norm_conv): LayerNorm((256,), eps=1e-05, elementwise_affine=True)
        (norm_final): LayerNorm((256,), eps=1e-05, elementwise_affine=True)
        (dropout): Dropout(p=0.1, inplace=False)
        (concat_linear): Identity()
      )
      (9): ConformerEncoderLayer(
        (self_attn): RelPositionMultiHeadedAttention(
          (linear_q): Linear(in_features=256, out_features=256, bias=True)
          (linear_k): Linear(in_features=256, out_features=256, bias=True)
          (linear_v): Linear(in_features=256, out_features=256, bias=True)
          (linear_out): Linear(in_features=256, out_features=256, bias=True)
          (dropout): Dropout(p=0.1, inplace=False)
          (linear_pos): Linear(in_features=256, out_features=256, bias=False)
        )
        (feed_forward): PositionwiseFeedForward(
          (w_1): Linear(in_features=256, out_features=2048, bias=True)
          (activation): SiLU()
          (dropout): Dropout(p=0.1, inplace=False)
          (w_2): Linear(in_features=2048, out_features=256, bias=True)
        )
        (feed_forward_macaron): PositionwiseFeedForward(
          (w_1): Linear(in_features=256, out_features=2048, bias=True)
          (activation): SiLU()
          (dropout): Dropout(p=0.1, inplace=False)
          (w_2): Linear(in_features=2048, out_features=256, bias=True)
        )
        (conv_module): ConvolutionModule(
          (pointwise_conv1): Conv1d(256, 512, kernel_size=(1,), stride=(1,))
          (depthwise_conv): Conv1d(256, 256, kernel_size=(15,), stride=(1,), padding=(7,), groups=256)
          (norm): BatchNorm1d(256, eps=1e-05, momentum=0.1, affine=True, track_running_stats=True)
          (pointwise_conv2): Conv1d(256, 256, kernel_size=(1,), stride=(1,))
          (activation): SiLU()
        )
        (norm_ff): LayerNorm((256,), eps=1e-05, elementwise_affine=True)
        (norm_mha): LayerNorm((256,), eps=1e-05, elementwise_affine=True)
        (norm_ff_macaron): LayerNorm((256,), eps=1e-05, elementwise_affine=True)
        (norm_conv): LayerNorm((256,), eps=1e-05, elementwise_affine=True)
        (norm_final): LayerNorm((256,), eps=1e-05, elementwise_affine=True)
        (dropout): Dropout(p=0.1, inplace=False)
        (concat_linear): Identity()
      )
      (10): ConformerEncoderLayer(
        (self_attn): RelPositionMultiHeadedAttention(
          (linear_q): Linear(in_features=256, out_features=256, bias=True)
          (linear_k): Linear(in_features=256, out_features=256, bias=True)
          (linear_v): Linear(in_features=256, out_features=256, bias=True)
          (linear_out): Linear(in_features=256, out_features=256, bias=True)
          (dropout): Dropout(p=0.1, inplace=False)
          (linear_pos): Linear(in_features=256, out_features=256, bias=False)
        )
        (feed_forward): PositionwiseFeedForward(
          (w_1): Linear(in_features=256, out_features=2048, bias=True)
          (activation): SiLU()
          (dropout): Dropout(p=0.1, inplace=False)
          (w_2): Linear(in_features=2048, out_features=256, bias=True)
        )
        (feed_forward_macaron): PositionwiseFeedForward(
          (w_1): Linear(in_features=256, out_features=2048, bias=True)
          (activation): SiLU()
          (dropout): Dropout(p=0.1, inplace=False)
          (w_2): Linear(in_features=2048, out_features=256, bias=True)
        )
        (conv_module): ConvolutionModule(
          (pointwise_conv1): Conv1d(256, 512, kernel_size=(1,), stride=(1,))
          (depthwise_conv): Conv1d(256, 256, kernel_size=(15,), stride=(1,), padding=(7,), groups=256)
          (norm): BatchNorm1d(256, eps=1e-05, momentum=0.1, affine=True, track_running_stats=True)
          (pointwise_conv2): Conv1d(256, 256, kernel_size=(1,), stride=(1,))
          (activation): SiLU()
        )
        (norm_ff): LayerNorm((256,), eps=1e-05, elementwise_affine=True)
        (norm_mha): LayerNorm((256,), eps=1e-05, elementwise_affine=True)
        (norm_ff_macaron): LayerNorm((256,), eps=1e-05, elementwise_affine=True)
        (norm_conv): LayerNorm((256,), eps=1e-05, elementwise_affine=True)
        (norm_final): LayerNorm((256,), eps=1e-05, elementwise_affine=True)
        (dropout): Dropout(p=0.1, inplace=False)
        (concat_linear): Identity()
      )
      (11): ConformerEncoderLayer(
        (self_attn): RelPositionMultiHeadedAttention(
          (linear_q): Linear(in_features=256, out_features=256, bias=True)
          (linear_k): Linear(in_features=256, out_features=256, bias=True)
          (linear_v): Linear(in_features=256, out_features=256, bias=True)
          (linear_out): Linear(in_features=256, out_features=256, bias=True)
          (dropout): Dropout(p=0.1, inplace=False)
          (linear_pos): Linear(in_features=256, out_features=256, bias=False)
        )
        (feed_forward): PositionwiseFeedForward(
          (w_1): Linear(in_features=256, out_features=2048, bias=True)
          (activation): SiLU()
          (dropout): Dropout(p=0.1, inplace=False)
          (w_2): Linear(in_features=2048, out_features=256, bias=True)
        )
        (feed_forward_macaron): PositionwiseFeedForward(
          (w_1): Linear(in_features=256, out_features=2048, bias=True)
          (activation): SiLU()
          (dropout): Dropout(p=0.1, inplace=False)
          (w_2): Linear(in_features=2048, out_features=256, bias=True)
        )
        (conv_module): ConvolutionModule(
          (pointwise_conv1): Conv1d(256, 512, kernel_size=(1,), stride=(1,))
          (depthwise_conv): Conv1d(256, 256, kernel_size=(15,), stride=(1,), padding=(7,), groups=256)
          (norm): BatchNorm1d(256, eps=1e-05, momentum=0.1, affine=True, track_running_stats=True)
          (pointwise_conv2): Conv1d(256, 256, kernel_size=(1,), stride=(1,))
          (activation): SiLU()
        )
        (norm_ff): LayerNorm((256,), eps=1e-05, elementwise_affine=True)
        (norm_mha): LayerNorm((256,), eps=1e-05, elementwise_affine=True)
        (norm_ff_macaron): LayerNorm((256,), eps=1e-05, elementwise_affine=True)
        (norm_conv): LayerNorm((256,), eps=1e-05, elementwise_affine=True)
        (norm_final): LayerNorm((256,), eps=1e-05, elementwise_affine=True)
        (dropout): Dropout(p=0.1, inplace=False)
        (concat_linear): Identity()
      )
    )
  )
  (decoder): BiTransformerDecoder(
    (left_decoder): TransformerDecoder(
      (embed): Sequential(
        (0): Embedding(5002, 256)
        (1): PositionalEncoding(
          (dropout): Dropout(p=0.1, inplace=False)
        )
      )
      (after_norm): LayerNorm((256,), eps=1e-05, elementwise_affine=True)
      (output_layer): Linear(in_features=256, out_features=5002, bias=True)
      (decoders): ModuleList(
        (0): DecoderLayer(
          (self_attn): MultiHeadedAttention(
            (linear_q): Linear(in_features=256, out_features=256, bias=True)
            (linear_k): Linear(in_features=256, out_features=256, bias=True)
            (linear_v): Linear(in_features=256, out_features=256, bias=True)
            (linear_out): Linear(in_features=256, out_features=256, bias=True)
            (dropout): Dropout(p=0.1, inplace=False)
          )
          (src_attn): MultiHeadedAttention(
            (linear_q): Linear(in_features=256, out_features=256, bias=True)
            (linear_k): Linear(in_features=256, out_features=256, bias=True)
            (linear_v): Linear(in_features=256, out_features=256, bias=True)
            (linear_out): Linear(in_features=256, out_features=256, bias=True)
            (dropout): Dropout(p=0.1, inplace=False)
          )
          (feed_forward): PositionwiseFeedForward(
            (w_1): Linear(in_features=256, out_features=2048, bias=True)
            (activation): ReLU()
            (dropout): Dropout(p=0.1, inplace=False)
            (w_2): Linear(in_features=2048, out_features=256, bias=True)
          )
          (norm1): LayerNorm((256,), eps=1e-05, elementwise_affine=True)
          (norm2): LayerNorm((256,), eps=1e-05, elementwise_affine=True)
          (norm3): LayerNorm((256,), eps=1e-05, elementwise_affine=True)
          (dropout): Dropout(p=0.1, inplace=False)
          (concat_linear1): Identity()
          (concat_linear2): Identity()
        )
        (1): DecoderLayer(
          (self_attn): MultiHeadedAttention(
            (linear_q): Linear(in_features=256, out_features=256, bias=True)
            (linear_k): Linear(in_features=256, out_features=256, bias=True)
            (linear_v): Linear(in_features=256, out_features=256, bias=True)
            (linear_out): Linear(in_features=256, out_features=256, bias=True)
            (dropout): Dropout(p=0.1, inplace=False)
          )
          (src_attn): MultiHeadedAttention(
            (linear_q): Linear(in_features=256, out_features=256, bias=True)
            (linear_k): Linear(in_features=256, out_features=256, bias=True)
            (linear_v): Linear(in_features=256, out_features=256, bias=True)
            (linear_out): Linear(in_features=256, out_features=256, bias=True)
            (dropout): Dropout(p=0.1, inplace=False)
          )
          (feed_forward): PositionwiseFeedForward(
            (w_1): Linear(in_features=256, out_features=2048, bias=True)
            (activation): ReLU()
            (dropout): Dropout(p=0.1, inplace=False)
            (w_2): Linear(in_features=2048, out_features=256, bias=True)
          )
          (norm1): LayerNorm((256,), eps=1e-05, elementwise_affine=True)
          (norm2): LayerNorm((256,), eps=1e-05, elementwise_affine=True)
          (norm3): LayerNorm((256,), eps=1e-05, elementwise_affine=True)
          (dropout): Dropout(p=0.1, inplace=False)
          (concat_linear1): Identity()
          (concat_linear2): Identity()
        )
        (2): DecoderLayer(
          (self_attn): MultiHeadedAttention(
            (linear_q): Linear(in_features=256, out_features=256, bias=True)
            (linear_k): Linear(in_features=256, out_features=256, bias=True)
            (linear_v): Linear(in_features=256, out_features=256, bias=True)
            (linear_out): Linear(in_features=256, out_features=256, bias=True)
            (dropout): Dropout(p=0.1, inplace=False)
          )
          (src_attn): MultiHeadedAttention(
            (linear_q): Linear(in_features=256, out_features=256, bias=True)
            (linear_k): Linear(in_features=256, out_features=256, bias=True)
            (linear_v): Linear(in_features=256, out_features=256, bias=True)
            (linear_out): Linear(in_features=256, out_features=256, bias=True)
            (dropout): Dropout(p=0.1, inplace=False)
          )
          (feed_forward): PositionwiseFeedForward(
            (w_1): Linear(in_features=256, out_features=2048, bias=True)
            (activation): ReLU()
            (dropout): Dropout(p=0.1, inplace=False)
            (w_2): Linear(in_features=2048, out_features=256, bias=True)
          )
          (norm1): LayerNorm((256,), eps=1e-05, elementwise_affine=True)
          (norm2): LayerNorm((256,), eps=1e-05, elementwise_affine=True)
          (norm3): LayerNorm((256,), eps=1e-05, elementwise_affine=True)
          (dropout): Dropout(p=0.1, inplace=False)
          (concat_linear1): Identity()
          (concat_linear2): Identity()
        )
      )
    )
    (right_decoder): TransformerDecoder(
      (embed): Sequential(
        (0): Embedding(5002, 256)
        (1): PositionalEncoding(
          (dropout): Dropout(p=0.1, inplace=False)
        )
      )
      (after_norm): LayerNorm((256,), eps=1e-05, elementwise_affine=True)
      (output_layer): Linear(in_features=256, out_features=5002, bias=True)
      (decoders): ModuleList(
        (0): DecoderLayer(
          (self_attn): MultiHeadedAttention(
            (linear_q): Linear(in_features=256, out_features=256, bias=True)
            (linear_k): Linear(in_features=256, out_features=256, bias=True)
            (linear_v): Linear(in_features=256, out_features=256, bias=True)
            (linear_out): Linear(in_features=256, out_features=256, bias=True)
            (dropout): Dropout(p=0.1, inplace=False)
          )
          (src_attn): MultiHeadedAttention(
            (linear_q): Linear(in_features=256, out_features=256, bias=True)
            (linear_k): Linear(in_features=256, out_features=256, bias=True)
            (linear_v): Linear(in_features=256, out_features=256, bias=True)
            (linear_out): Linear(in_features=256, out_features=256, bias=True)
            (dropout): Dropout(p=0.1, inplace=False)
          )
          (feed_forward): PositionwiseFeedForward(
            (w_1): Linear(in_features=256, out_features=2048, bias=True)
            (activation): ReLU()
            (dropout): Dropout(p=0.1, inplace=False)
            (w_2): Linear(in_features=2048, out_features=256, bias=True)
          )
          (norm1): LayerNorm((256,), eps=1e-05, elementwise_affine=True)
          (norm2): LayerNorm((256,), eps=1e-05, elementwise_affine=True)
          (norm3): LayerNorm((256,), eps=1e-05, elementwise_affine=True)
          (dropout): Dropout(p=0.1, inplace=False)
          (concat_linear1): Identity()
          (concat_linear2): Identity()
        )
        (1): DecoderLayer(
          (self_attn): MultiHeadedAttention(
            (linear_q): Linear(in_features=256, out_features=256, bias=True)
            (linear_k): Linear(in_features=256, out_features=256, bias=True)
            (linear_v): Linear(in_features=256, out_features=256, bias=True)
            (linear_out): Linear(in_features=256, out_features=256, bias=True)
            (dropout): Dropout(p=0.1, inplace=False)
          )
          (src_attn): MultiHeadedAttention(
            (linear_q): Linear(in_features=256, out_features=256, bias=True)
            (linear_k): Linear(in_features=256, out_features=256, bias=True)
            (linear_v): Linear(in_features=256, out_features=256, bias=True)
            (linear_out): Linear(in_features=256, out_features=256, bias=True)
            (dropout): Dropout(p=0.1, inplace=False)
          )
          (feed_forward): PositionwiseFeedForward(
            (w_1): Linear(in_features=256, out_features=2048, bias=True)
            (activation): ReLU()
            (dropout): Dropout(p=0.1, inplace=False)
            (w_2): Linear(in_features=2048, out_features=256, bias=True)
          )
          (norm1): LayerNorm((256,), eps=1e-05, elementwise_affine=True)
          (norm2): LayerNorm((256,), eps=1e-05, elementwise_affine=True)
          (norm3): LayerNorm((256,), eps=1e-05, elementwise_affine=True)
          (dropout): Dropout(p=0.1, inplace=False)
          (concat_linear1): Identity()
          (concat_linear2): Identity()
        )
        (2): DecoderLayer(
          (self_attn): MultiHeadedAttention(
            (linear_q): Linear(in_features=256, out_features=256, bias=True)
            (linear_k): Linear(in_features=256, out_features=256, bias=True)
            (linear_v): Linear(in_features=256, out_features=256, bias=True)
            (linear_out): Linear(in_features=256, out_features=256, bias=True)
            (dropout): Dropout(p=0.1, inplace=False)
          )
          (src_attn): MultiHeadedAttention(
            (linear_q): Linear(in_features=256, out_features=256, bias=True)
            (linear_k): Linear(in_features=256, out_features=256, bias=True)
            (linear_v): Linear(in_features=256, out_features=256, bias=True)
            (linear_out): Linear(in_features=256, out_features=256, bias=True)
            (dropout): Dropout(p=0.1, inplace=False)
          )
          (feed_forward): PositionwiseFeedForward(
            (w_1): Linear(in_features=256, out_features=2048, bias=True)
            (activation): ReLU()
            (dropout): Dropout(p=0.1, inplace=False)
            (w_2): Linear(in_features=2048, out_features=256, bias=True)
          )
          (norm1): LayerNorm((256,), eps=1e-05, elementwise_affine=True)
          (norm2): LayerNorm((256,), eps=1e-05, elementwise_affine=True)
          (norm3): LayerNorm((256,), eps=1e-05, elementwise_affine=True)
          (dropout): Dropout(p=0.1, inplace=False)
          (concat_linear1): Identity()
          (concat_linear2): Identity()
        )
      )
    )
  )
  (ctc): CTC(
    (ctc_lo): Linear(in_features=256, out_features=5002, bias=True)
    (ctc_loss): CTCLoss()
  )
  (context_bias): ContextBias(
    (context_extractor): BLSTM(
      (word_embedding): Embedding(5002, 256)
      (sen_rnn): LSTM(256, 256, batch_first=True, bidirectional=True)
    )
    (context_encoder): Sequential(
      (0): Linear(in_features=1024, out_features=256, bias=True)
      (1): LayerNorm((256,), eps=1e-05, elementwise_affine=True)
    )
    (encoder_bias): MultiHeadedAttention(
      (linear_q): Linear(in_features=256, out_features=256, bias=True)
      (linear_k): Linear(in_features=256, out_features=256, bias=True)
      (linear_v): Linear(in_features=256, out_features=256, bias=True)
      (linear_out): Linear(in_features=256, out_features=256, bias=True)
      (dropout): Dropout(p=0.0, inplace=False)
    )
    (predictor_bias): MultiHeadedAttention(
      (linear_q): Linear(in_features=256, out_features=256, bias=True)
      (linear_k): Linear(in_features=256, out_features=256, bias=True)
      (linear_v): Linear(in_features=256, out_features=256, bias=True)
      (linear_out): Linear(in_features=256, out_features=256, bias=True)
      (dropout): Dropout(p=0.0, inplace=False)
    )
    (hw_bias): MultiHeadedAttention(
      (linear_q): Linear(in_features=100, out_features=100, bias=True)
      (linear_k): Linear(in_features=100, out_features=100, bias=True)
      (linear_v): Linear(in_features=100, out_features=100, bias=True)
      (linear_out): Linear(in_features=100, out_features=100, bias=True)
      (dropout): Dropout(p=0.0, inplace=False)
    )
    (encoder_norm): LayerNorm((256,), eps=1e-05, elementwise_affine=True)
    (encoder_bias_norm): LayerNorm((256,), eps=1e-05, elementwise_affine=True)
    (encoder_ffn): Linear(in_features=512, out_features=256, bias=True)
    (encoder_bias_combine): Linear(in_features=512, out_features=256, bias=True)
    (encdoer_bias_bias_norm): LayerNorm((256,), eps=1e-05, elementwise_affine=True)
    (encdoer_bias_out_norm): LayerNorm((256,), eps=1e-05, elementwise_affine=True)
    (predictor_bias_combine): Linear(in_features=512, out_features=256, bias=True)
    (predictor_bias_bias_norm): LayerNorm((256,), eps=1e-05, elementwise_affine=True)
    (predictor_bias_out_norm): LayerNorm((256,), eps=1e-05, elementwise_affine=True)
    (hw_bias_norm): LayerNorm((100,), eps=1e-05, elementwise_affine=True)
    (hw_output_layer): Linear(in_features=100, out_features=2, bias=True)
    (hw_output_layer_enc): Linear(in_features=256, out_features=100, bias=True)
    (hw_output_layer_dec): Linear(in_features=256, out_features=100, bias=True)
  )
  (predictor): RNNPredictor(
    (embed): Embedding(5002, 256)
    (dropout): Dropout(p=0.1, inplace=False)
    (rnn): LSTM(256, 256, num_layers=2, batch_first=True, dropout=0.1)
    (projection): Linear(in_features=256, out_features=256, bias=True)
  )
  (joint): TransducerJoint(
    (activatoin): Tanh()
    (enc_ffn): Linear(in_features=256, out_features=512, bias=True)
    (pred_ffn): Linear(in_features=256, out_features=512, bias=True)
    (ffn_out): Linear(in_features=512, out_features=5002, bias=True)
  )
  (hw_criterion): CrossEntropyLoss()
  (criterion_att): LabelSmoothingLoss(
    (criterion): KLDivLoss()
  )
)
the number of model params: 58195794
2023-02-25 14:52:11,173 INFO Epoch 11 TRAIN info lr 4e-08
2023-02-25 14:52:11,174 INFO using accumulate grad, new batch size is 4 times larger than before
2023-02-25 14:52:11,175 INFO Epoch 11 TRAIN info lr 4e-08
2023-02-25 14:52:11,177 INFO using accumulate grad, new batch size is 4 times larger than before
Transducer(
  (encoder): ConformerEncoder(
    (global_cmvn): GlobalCMVN()
    (embed): Conv2dSubsampling4(
      (conv): Sequential(
        (0): Conv2d(1, 256, kernel_size=(3, 3), stride=(2, 2))
        (1): ReLU()
        (2): Conv2d(256, 256, kernel_size=(3, 3), stride=(2, 2))
        (3): ReLU()
      )
      (out): Sequential(
        (0): Linear(in_features=4864, out_features=256, bias=True)
      )
      (pos_enc): RelPositionalEncoding(
        (dropout): Dropout(p=0.1, inplace=False)
      )
    )
    (after_norm): LayerNorm((256,), eps=1e-05, elementwise_affine=True)
    (encoders): ModuleList(
      (0): ConformerEncoderLayer(
        (self_attn): RelPositionMultiHeadedAttention(
          (linear_q): Linear(in_features=256, out_features=256, bias=True)
          (linear_k): Linear(in_features=256, out_features=256, bias=True)
          (linear_v): Linear(in_features=256, out_features=256, bias=True)
          (linear_out): Linear(in_features=256, out_features=256, bias=True)
          (dropout): Dropout(p=0.1, inplace=False)
          (linear_pos): Linear(in_features=256, out_features=256, bias=False)
        )
        (feed_forward): PositionwiseFeedForward(
          (w_1): Linear(in_features=256, out_features=2048, bias=True)
          (activation): SiLU()
          (dropout): Dropout(p=0.1, inplace=False)
          (w_2): Linear(in_features=2048, out_features=256, bias=True)
        )
        (feed_forward_macaron): PositionwiseFeedForward(
          (w_1): Linear(in_features=256, out_features=2048, bias=True)
          (activation): SiLU()
          (dropout): Dropout(p=0.1, inplace=False)
          (w_2): Linear(in_features=2048, out_features=256, bias=True)
        )
        (conv_module): ConvolutionModule(
          (pointwise_conv1): Conv1d(256, 512, kernel_size=(1,), stride=(1,))
          (depthwise_conv): Conv1d(256, 256, kernel_size=(15,), stride=(1,), padding=(7,), groups=256)
          (norm): BatchNorm1d(256, eps=1e-05, momentum=0.1, affine=True, track_running_stats=True)
          (pointwise_conv2): Conv1d(256, 256, kernel_size=(1,), stride=(1,))
          (activation): SiLU()
        )
        (norm_ff): LayerNorm((256,), eps=1e-05, elementwise_affine=True)
        (norm_mha): LayerNorm((256,), eps=1e-05, elementwise_affine=True)
        (norm_ff_macaron): LayerNorm((256,), eps=1e-05, elementwise_affine=True)
        (norm_conv): LayerNorm((256,), eps=1e-05, elementwise_affine=True)
        (norm_final): LayerNorm((256,), eps=1e-05, elementwise_affine=True)
        (dropout): Dropout(p=0.1, inplace=False)
        (concat_linear): Identity()
      )
      (1): ConformerEncoderLayer(
        (self_attn): RelPositionMultiHeadedAttention(
          (linear_q): Linear(in_features=256, out_features=256, bias=True)
          (linear_k): Linear(in_features=256, out_features=256, bias=True)
          (linear_v): Linear(in_features=256, out_features=256, bias=True)
          (linear_out): Linear(in_features=256, out_features=256, bias=True)
          (dropout): Dropout(p=0.1, inplace=False)
          (linear_pos): Linear(in_features=256, out_features=256, bias=False)
        )
        (feed_forward): PositionwiseFeedForward(
          (w_1): Linear(in_features=256, out_features=2048, bias=True)
          (activation): SiLU()
          (dropout): Dropout(p=0.1, inplace=False)
          (w_2): Linear(in_features=2048, out_features=256, bias=True)
        )
        (feed_forward_macaron): PositionwiseFeedForward(
          (w_1): Linear(in_features=256, out_features=2048, bias=True)
          (activation): SiLU()
          (dropout): Dropout(p=0.1, inplace=False)
          (w_2): Linear(in_features=2048, out_features=256, bias=True)
        )
        (conv_module): ConvolutionModule(
          (pointwise_conv1): Conv1d(256, 512, kernel_size=(1,), stride=(1,))
          (depthwise_conv): Conv1d(256, 256, kernel_size=(15,), stride=(1,), padding=(7,), groups=256)
          (norm): BatchNorm1d(256, eps=1e-05, momentum=0.1, affine=True, track_running_stats=True)
          (pointwise_conv2): Conv1d(256, 256, kernel_size=(1,), stride=(1,))
          (activation): SiLU()
        )
        (norm_ff): LayerNorm((256,), eps=1e-05, elementwise_affine=True)
        (norm_mha): LayerNorm((256,), eps=1e-05, elementwise_affine=True)
        (norm_ff_macaron): LayerNorm((256,), eps=1e-05, elementwise_affine=True)
        (norm_conv): LayerNorm((256,), eps=1e-05, elementwise_affine=True)
        (norm_final): LayerNorm((256,), eps=1e-05, elementwise_affine=True)
        (dropout): Dropout(p=0.1, inplace=False)
        (concat_linear): Identity()
      )
      (2): ConformerEncoderLayer(
        (self_attn): RelPositionMultiHeadedAttention(
          (linear_q): Linear(in_features=256, out_features=256, bias=True)
          (linear_k): Linear(in_features=256, out_features=256, bias=True)
          (linear_v): Linear(in_features=256, out_features=256, bias=True)
          (linear_out): Linear(in_features=256, out_features=256, bias=True)
          (dropout): Dropout(p=0.1, inplace=False)
          (linear_pos): Linear(in_features=256, out_features=256, bias=False)
        )
        (feed_forward): PositionwiseFeedForward(
          (w_1): Linear(in_features=256, out_features=2048, bias=True)
          (activation): SiLU()
          (dropout): Dropout(p=0.1, inplace=False)
          (w_2): Linear(in_features=2048, out_features=256, bias=True)
        )
        (feed_forward_macaron): PositionwiseFeedForward(
          (w_1): Linear(in_features=256, out_features=2048, bias=True)
          (activation): SiLU()
          (dropout): Dropout(p=0.1, inplace=False)
          (w_2): Linear(in_features=2048, out_features=256, bias=True)
        )
        (conv_module): ConvolutionModule(
          (pointwise_conv1): Conv1d(256, 512, kernel_size=(1,), stride=(1,))
          (depthwise_conv): Conv1d(256, 256, kernel_size=(15,), stride=(1,), padding=(7,), groups=256)
          (norm): BatchNorm1d(256, eps=1e-05, momentum=0.1, affine=True, track_running_stats=True)
          (pointwise_conv2): Conv1d(256, 256, kernel_size=(1,), stride=(1,))
          (activation): SiLU()
        )
        (norm_ff): LayerNorm((256,), eps=1e-05, elementwise_affine=True)
        (norm_mha): LayerNorm((256,), eps=1e-05, elementwise_affine=True)
        (norm_ff_macaron): LayerNorm((256,), eps=1e-05, elementwise_affine=True)
        (norm_conv): LayerNorm((256,), eps=1e-05, elementwise_affine=True)
        (norm_final): LayerNorm((256,), eps=1e-05, elementwise_affine=True)
        (dropout): Dropout(p=0.1, inplace=False)
        (concat_linear): Identity()
      )
      (3): ConformerEncoderLayer(
        (self_attn): RelPositionMultiHeadedAttention(
          (linear_q): Linear(in_features=256, out_features=256, bias=True)
          (linear_k): Linear(in_features=256, out_features=256, bias=True)
          (linear_v): Linear(in_features=256, out_features=256, bias=True)
          (linear_out): Linear(in_features=256, out_features=256, bias=True)
          (dropout): Dropout(p=0.1, inplace=False)
          (linear_pos): Linear(in_features=256, out_features=256, bias=False)
        )
        (feed_forward): PositionwiseFeedForward(
          (w_1): Linear(in_features=256, out_features=2048, bias=True)
          (activation): SiLU()
          (dropout): Dropout(p=0.1, inplace=False)
          (w_2): Linear(in_features=2048, out_features=256, bias=True)
        )
        (feed_forward_macaron): PositionwiseFeedForward(
          (w_1): Linear(in_features=256, out_features=2048, bias=True)
          (activation): SiLU()
          (dropout): Dropout(p=0.1, inplace=False)
          (w_2): Linear(in_features=2048, out_features=256, bias=True)
        )
        (conv_module): ConvolutionModule(
          (pointwise_conv1): Conv1d(256, 512, kernel_size=(1,), stride=(1,))
          (depthwise_conv): Conv1d(256, 256, kernel_size=(15,), stride=(1,), padding=(7,), groups=256)
          (norm): BatchNorm1d(256, eps=1e-05, momentum=0.1, affine=True, track_running_stats=True)
          (pointwise_conv2): Conv1d(256, 256, kernel_size=(1,), stride=(1,))
          (activation): SiLU()
        )
        (norm_ff): LayerNorm((256,), eps=1e-05, elementwise_affine=True)
        (norm_mha): LayerNorm((256,), eps=1e-05, elementwise_affine=True)
        (norm_ff_macaron): LayerNorm((256,), eps=1e-05, elementwise_affine=True)
        (norm_conv): LayerNorm((256,), eps=1e-05, elementwise_affine=True)
        (norm_final): LayerNorm((256,), eps=1e-05, elementwise_affine=True)
        (dropout): Dropout(p=0.1, inplace=False)
        (concat_linear): Identity()
      )
      (4): ConformerEncoderLayer(
        (self_attn): RelPositionMultiHeadedAttention(
          (linear_q): Linear(in_features=256, out_features=256, bias=True)
          (linear_k): Linear(in_features=256, out_features=256, bias=True)
          (linear_v): Linear(in_features=256, out_features=256, bias=True)
          (linear_out): Linear(in_features=256, out_features=256, bias=True)
          (dropout): Dropout(p=0.1, inplace=False)
          (linear_pos): Linear(in_features=256, out_features=256, bias=False)
        )
        (feed_forward): PositionwiseFeedForward(
          (w_1): Linear(in_features=256, out_features=2048, bias=True)
          (activation): SiLU()
          (dropout): Dropout(p=0.1, inplace=False)
          (w_2): Linear(in_features=2048, out_features=256, bias=True)
        )
        (feed_forward_macaron): PositionwiseFeedForward(
          (w_1): Linear(in_features=256, out_features=2048, bias=True)
          (activation): SiLU()
          (dropout): Dropout(p=0.1, inplace=False)
          (w_2): Linear(in_features=2048, out_features=256, bias=True)
        )
        (conv_module): ConvolutionModule(
          (pointwise_conv1): Conv1d(256, 512, kernel_size=(1,), stride=(1,))
          (depthwise_conv): Conv1d(256, 256, kernel_size=(15,), stride=(1,), padding=(7,), groups=256)
          (norm): BatchNorm1d(256, eps=1e-05, momentum=0.1, affine=True, track_running_stats=True)
          (pointwise_conv2): Conv1d(256, 256, kernel_size=(1,), stride=(1,))
          (activation): SiLU()
        )
        (norm_ff): LayerNorm((256,), eps=1e-05, elementwise_affine=True)
        (norm_mha): LayerNorm((256,), eps=1e-05, elementwise_affine=True)
        (norm_ff_macaron): LayerNorm((256,), eps=1e-05, elementwise_affine=True)
        (norm_conv): LayerNorm((256,), eps=1e-05, elementwise_affine=True)
        (norm_final): LayerNorm((256,), eps=1e-05, elementwise_affine=True)
        (dropout): Dropout(p=0.1, inplace=False)
        (concat_linear): Identity()
      )
      (5): ConformerEncoderLayer(
        (self_attn): RelPositionMultiHeadedAttention(
          (linear_q): Linear(in_features=256, out_features=256, bias=True)
          (linear_k): Linear(in_features=256, out_features=256, bias=True)
          (linear_v): Linear(in_features=256, out_features=256, bias=True)
          (linear_out): Linear(in_features=256, out_features=256, bias=True)
          (dropout): Dropout(p=0.1, inplace=False)
          (linear_pos): Linear(in_features=256, out_features=256, bias=False)
        )
        (feed_forward): PositionwiseFeedForward(
          (w_1): Linear(in_features=256, out_features=2048, bias=True)
          (activation): SiLU()
          (dropout): Dropout(p=0.1, inplace=False)
          (w_2): Linear(in_features=2048, out_features=256, bias=True)
        )
        (feed_forward_macaron): PositionwiseFeedForward(
          (w_1): Linear(in_features=256, out_features=2048, bias=True)
          (activation): SiLU()
          (dropout): Dropout(p=0.1, inplace=False)
          (w_2): Linear(in_features=2048, out_features=256, bias=True)
        )
        (conv_module): ConvolutionModule(
          (pointwise_conv1): Conv1d(256, 512, kernel_size=(1,), stride=(1,))
          (depthwise_conv): Conv1d(256, 256, kernel_size=(15,), stride=(1,), padding=(7,), groups=256)
          (norm): BatchNorm1d(256, eps=1e-05, momentum=0.1, affine=True, track_running_stats=True)
          (pointwise_conv2): Conv1d(256, 256, kernel_size=(1,), stride=(1,))
          (activation): SiLU()
        )
        (norm_ff): LayerNorm((256,), eps=1e-05, elementwise_affine=True)
        (norm_mha): LayerNorm((256,), eps=1e-05, elementwise_affine=True)
        (norm_ff_macaron): LayerNorm((256,), eps=1e-05, elementwise_affine=True)
        (norm_conv): LayerNorm((256,), eps=1e-05, elementwise_affine=True)
        (norm_final): LayerNorm((256,), eps=1e-05, elementwise_affine=True)
        (dropout): Dropout(p=0.1, inplace=False)
        (concat_linear): Identity()
      )
      (6): ConformerEncoderLayer(
        (self_attn): RelPositionMultiHeadedAttention(
          (linear_q): Linear(in_features=256, out_features=256, bias=True)
          (linear_k): Linear(in_features=256, out_features=256, bias=True)
          (linear_v): Linear(in_features=256, out_features=256, bias=True)
          (linear_out): Linear(in_features=256, out_features=256, bias=True)
          (dropout): Dropout(p=0.1, inplace=False)
          (linear_pos): Linear(in_features=256, out_features=256, bias=False)
        )
        (feed_forward): PositionwiseFeedForward(
          (w_1): Linear(in_features=256, out_features=2048, bias=True)
          (activation): SiLU()
          (dropout): Dropout(p=0.1, inplace=False)
          (w_2): Linear(in_features=2048, out_features=256, bias=True)
        )
        (feed_forward_macaron): PositionwiseFeedForward(
          (w_1): Linear(in_features=256, out_features=2048, bias=True)
          (activation): SiLU()
          (dropout): Dropout(p=0.1, inplace=False)
          (w_2): Linear(in_features=2048, out_features=256, bias=True)
        )
        (conv_module): ConvolutionModule(
          (pointwise_conv1): Conv1d(256, 512, kernel_size=(1,), stride=(1,))
          (depthwise_conv): Conv1d(256, 256, kernel_size=(15,), stride=(1,), padding=(7,), groups=256)
          (norm): BatchNorm1d(256, eps=1e-05, momentum=0.1, affine=True, track_running_stats=True)
          (pointwise_conv2): Conv1d(256, 256, kernel_size=(1,), stride=(1,))
          (activation): SiLU()
        )
        (norm_ff): LayerNorm((256,), eps=1e-05, elementwise_affine=True)
        (norm_mha): LayerNorm((256,), eps=1e-05, elementwise_affine=True)
        (norm_ff_macaron): LayerNorm((256,), eps=1e-05, elementwise_affine=True)
        (norm_conv): LayerNorm((256,), eps=1e-05, elementwise_affine=True)
        (norm_final): LayerNorm((256,), eps=1e-05, elementwise_affine=True)
        (dropout): Dropout(p=0.1, inplace=False)
        (concat_linear): Identity()
      )
      (7): ConformerEncoderLayer(
        (self_attn): RelPositionMultiHeadedAttention(
          (linear_q): Linear(in_features=256, out_features=256, bias=True)
          (linear_k): Linear(in_features=256, out_features=256, bias=True)
          (linear_v): Linear(in_features=256, out_features=256, bias=True)
          (linear_out): Linear(in_features=256, out_features=256, bias=True)
          (dropout): Dropout(p=0.1, inplace=False)
          (linear_pos): Linear(in_features=256, out_features=256, bias=False)
        )
        (feed_forward): PositionwiseFeedForward(
          (w_1): Linear(in_features=256, out_features=2048, bias=True)
          (activation): SiLU()
          (dropout): Dropout(p=0.1, inplace=False)
          (w_2): Linear(in_features=2048, out_features=256, bias=True)
        )
        (feed_forward_macaron): PositionwiseFeedForward(
          (w_1): Linear(in_features=256, out_features=2048, bias=True)
          (activation): SiLU()
          (dropout): Dropout(p=0.1, inplace=False)
          (w_2): Linear(in_features=2048, out_features=256, bias=True)
        )
        (conv_module): ConvolutionModule(
          (pointwise_conv1): Conv1d(256, 512, kernel_size=(1,), stride=(1,))
          (depthwise_conv): Conv1d(256, 256, kernel_size=(15,), stride=(1,), padding=(7,), groups=256)
          (norm): BatchNorm1d(256, eps=1e-05, momentum=0.1, affine=True, track_running_stats=True)
          (pointwise_conv2): Conv1d(256, 256, kernel_size=(1,), stride=(1,))
          (activation): SiLU()
        )
        (norm_ff): LayerNorm((256,), eps=1e-05, elementwise_affine=True)
        (norm_mha): LayerNorm((256,), eps=1e-05, elementwise_affine=True)
        (norm_ff_macaron): LayerNorm((256,), eps=1e-05, elementwise_affine=True)
        (norm_conv): LayerNorm((256,), eps=1e-05, elementwise_affine=True)
        (norm_final): LayerNorm((256,), eps=1e-05, elementwise_affine=True)
        (dropout): Dropout(p=0.1, inplace=False)
        (concat_linear): Identity()
      )
      (8): ConformerEncoderLayer(
        (self_attn): RelPositionMultiHeadedAttention(
          (linear_q): Linear(in_features=256, out_features=256, bias=True)
          (linear_k): Linear(in_features=256, out_features=256, bias=True)
          (linear_v): Linear(in_features=256, out_features=256, bias=True)
          (linear_out): Linear(in_features=256, out_features=256, bias=True)
          (dropout): Dropout(p=0.1, inplace=False)
          (linear_pos): Linear(in_features=256, out_features=256, bias=False)
        )
        (feed_forward): PositionwiseFeedForward(
          (w_1): Linear(in_features=256, out_features=2048, bias=True)
          (activation): SiLU()
          (dropout): Dropout(p=0.1, inplace=False)
          (w_2): Linear(in_features=2048, out_features=256, bias=True)
        )
        (feed_forward_macaron): PositionwiseFeedForward(
          (w_1): Linear(in_features=256, out_features=2048, bias=True)
          (activation): SiLU()
          (dropout): Dropout(p=0.1, inplace=False)
          (w_2): Linear(in_features=2048, out_features=256, bias=True)
        )
        (conv_module): ConvolutionModule(
          (pointwise_conv1): Conv1d(256, 512, kernel_size=(1,), stride=(1,))
          (depthwise_conv): Conv1d(256, 256, kernel_size=(15,), stride=(1,), padding=(7,), groups=256)
          (norm): BatchNorm1d(256, eps=1e-05, momentum=0.1, affine=True, track_running_stats=True)
          (pointwise_conv2): Conv1d(256, 256, kernel_size=(1,), stride=(1,))
          (activation): SiLU()
        )
        (norm_ff): LayerNorm((256,), eps=1e-05, elementwise_affine=True)
        (norm_mha): LayerNorm((256,), eps=1e-05, elementwise_affine=True)
        (norm_ff_macaron): LayerNorm((256,), eps=1e-05, elementwise_affine=True)
        (norm_conv): LayerNorm((256,), eps=1e-05, elementwise_affine=True)
        (norm_final): LayerNorm((256,), eps=1e-05, elementwise_affine=True)
        (dropout): Dropout(p=0.1, inplace=False)
        (concat_linear): Identity()
      )
      (9): ConformerEncoderLayer(
        (self_attn): RelPositionMultiHeadedAttention(
          (linear_q): Linear(in_features=256, out_features=256, bias=True)
          (linear_k): Linear(in_features=256, out_features=256, bias=True)
          (linear_v): Linear(in_features=256, out_features=256, bias=True)
          (linear_out): Linear(in_features=256, out_features=256, bias=True)
          (dropout): Dropout(p=0.1, inplace=False)
          (linear_pos): Linear(in_features=256, out_features=256, bias=False)
        )
        (feed_forward): PositionwiseFeedForward(
          (w_1): Linear(in_features=256, out_features=2048, bias=True)
          (activation): SiLU()
          (dropout): Dropout(p=0.1, inplace=False)
          (w_2): Linear(in_features=2048, out_features=256, bias=True)
        )
        (feed_forward_macaron): PositionwiseFeedForward(
          (w_1): Linear(in_features=256, out_features=2048, bias=True)
          (activation): SiLU()
          (dropout): Dropout(p=0.1, inplace=False)
          (w_2): Linear(in_features=2048, out_features=256, bias=True)
        )
        (conv_module): ConvolutionModule(
          (pointwise_conv1): Conv1d(256, 512, kernel_size=(1,), stride=(1,))
          (depthwise_conv): Conv1d(256, 256, kernel_size=(15,), stride=(1,), padding=(7,), groups=256)
          (norm): BatchNorm1d(256, eps=1e-05, momentum=0.1, affine=True, track_running_stats=True)
          (pointwise_conv2): Conv1d(256, 256, kernel_size=(1,), stride=(1,))
          (activation): SiLU()
        )
        (norm_ff): LayerNorm((256,), eps=1e-05, elementwise_affine=True)
        (norm_mha): LayerNorm((256,), eps=1e-05, elementwise_affine=True)
        (norm_ff_macaron): LayerNorm((256,), eps=1e-05, elementwise_affine=True)
        (norm_conv): LayerNorm((256,), eps=1e-05, elementwise_affine=True)
        (norm_final): LayerNorm((256,), eps=1e-05, elementwise_affine=True)
        (dropout): Dropout(p=0.1, inplace=False)
        (concat_linear): Identity()
      )
      (10): ConformerEncoderLayer(
        (self_attn): RelPositionMultiHeadedAttention(
          (linear_q): Linear(in_features=256, out_features=256, bias=True)
          (linear_k): Linear(in_features=256, out_features=256, bias=True)
          (linear_v): Linear(in_features=256, out_features=256, bias=True)
          (linear_out): Linear(in_features=256, out_features=256, bias=True)
          (dropout): Dropout(p=0.1, inplace=False)
          (linear_pos): Linear(in_features=256, out_features=256, bias=False)
        )
        (feed_forward): PositionwiseFeedForward(
          (w_1): Linear(in_features=256, out_features=2048, bias=True)
          (activation): SiLU()
          (dropout): Dropout(p=0.1, inplace=False)
          (w_2): Linear(in_features=2048, out_features=256, bias=True)
        )
        (feed_forward_macaron): PositionwiseFeedForward(
          (w_1): Linear(in_features=256, out_features=2048, bias=True)
          (activation): SiLU()
          (dropout): Dropout(p=0.1, inplace=False)
          (w_2): Linear(in_features=2048, out_features=256, bias=True)
        )
        (conv_module): ConvolutionModule(
          (pointwise_conv1): Conv1d(256, 512, kernel_size=(1,), stride=(1,))
          (depthwise_conv): Conv1d(256, 256, kernel_size=(15,), stride=(1,), padding=(7,), groups=256)
          (norm): BatchNorm1d(256, eps=1e-05, momentum=0.1, affine=True, track_running_stats=True)
          (pointwise_conv2): Conv1d(256, 256, kernel_size=(1,), stride=(1,))
          (activation): SiLU()
        )
        (norm_ff): LayerNorm((256,), eps=1e-05, elementwise_affine=True)
        (norm_mha): LayerNorm((256,), eps=1e-05, elementwise_affine=True)
        (norm_ff_macaron): LayerNorm((256,), eps=1e-05, elementwise_affine=True)
        (norm_conv): LayerNorm((256,), eps=1e-05, elementwise_affine=True)
        (norm_final): LayerNorm((256,), eps=1e-05, elementwise_affine=True)
        (dropout): Dropout(p=0.1, inplace=False)
        (concat_linear): Identity()
      )
      (11): ConformerEncoderLayer(
        (self_attn): RelPositionMultiHeadedAttention(
          (linear_q): Linear(in_features=256, out_features=256, bias=True)
          (linear_k): Linear(in_features=256, out_features=256, bias=True)
          (linear_v): Linear(in_features=256, out_features=256, bias=True)
          (linear_out): Linear(in_features=256, out_features=256, bias=True)
          (dropout): Dropout(p=0.1, inplace=False)
          (linear_pos): Linear(in_features=256, out_features=256, bias=False)
        )
        (feed_forward): PositionwiseFeedForward(
          (w_1): Linear(in_features=256, out_features=2048, bias=True)
          (activation): SiLU()
          (dropout): Dropout(p=0.1, inplace=False)
          (w_2): Linear(in_features=2048, out_features=256, bias=True)
        )
        (feed_forward_macaron): PositionwiseFeedForward(
          (w_1): Linear(in_features=256, out_features=2048, bias=True)
          (activation): SiLU()
          (dropout): Dropout(p=0.1, inplace=False)
          (w_2): Linear(in_features=2048, out_features=256, bias=True)
        )
        (conv_module): ConvolutionModule(
          (pointwise_conv1): Conv1d(256, 512, kernel_size=(1,), stride=(1,))
          (depthwise_conv): Conv1d(256, 256, kernel_size=(15,), stride=(1,), padding=(7,), groups=256)
          (norm): BatchNorm1d(256, eps=1e-05, momentum=0.1, affine=True, track_running_stats=True)
          (pointwise_conv2): Conv1d(256, 256, kernel_size=(1,), stride=(1,))
          (activation): SiLU()
        )
        (norm_ff): LayerNorm((256,), eps=1e-05, elementwise_affine=True)
        (norm_mha): LayerNorm((256,), eps=1e-05, elementwise_affine=True)
        (norm_ff_macaron): LayerNorm((256,), eps=1e-05, elementwise_affine=True)
        (norm_conv): LayerNorm((256,), eps=1e-05, elementwise_affine=True)
        (norm_final): LayerNorm((256,), eps=1e-05, elementwise_affine=True)
        (dropout): Dropout(p=0.1, inplace=False)
        (concat_linear): Identity()
      )
    )
  )
  (decoder): BiTransformerDecoder(
    (left_decoder): TransformerDecoder(
      (embed): Sequential(
        (0): Embedding(5002, 256)
        (1): PositionalEncoding(
          (dropout): Dropout(p=0.1, inplace=False)
        )
      )
      (after_norm): LayerNorm((256,), eps=1e-05, elementwise_affine=True)
      (output_layer): Linear(in_features=256, out_features=5002, bias=True)
      (decoders): ModuleList(
        (0): DecoderLayer(
          (self_attn): MultiHeadedAttention(
            (linear_q): Linear(in_features=256, out_features=256, bias=True)
            (linear_k): Linear(in_features=256, out_features=256, bias=True)
            (linear_v): Linear(in_features=256, out_features=256, bias=True)
            (linear_out): Linear(in_features=256, out_features=256, bias=True)
            (dropout): Dropout(p=0.1, inplace=False)
          )
          (src_attn): MultiHeadedAttention(
            (linear_q): Linear(in_features=256, out_features=256, bias=True)
            (linear_k): Linear(in_features=256, out_features=256, bias=True)
            (linear_v): Linear(in_features=256, out_features=256, bias=True)
            (linear_out): Linear(in_features=256, out_features=256, bias=True)
            (dropout): Dropout(p=0.1, inplace=False)
          )
          (feed_forward): PositionwiseFeedForward(
            (w_1): Linear(in_features=256, out_features=2048, bias=True)
            (activation): ReLU()
            (dropout): Dropout(p=0.1, inplace=False)
            (w_2): Linear(in_features=2048, out_features=256, bias=True)
          )
          (norm1): LayerNorm((256,), eps=1e-05, elementwise_affine=True)
          (norm2): LayerNorm((256,), eps=1e-05, elementwise_affine=True)
          (norm3): LayerNorm((256,), eps=1e-05, elementwise_affine=True)
          (dropout): Dropout(p=0.1, inplace=False)
          (concat_linear1): Identity()
          (concat_linear2): Identity()
        )
        (1): DecoderLayer(
          (self_attn): MultiHeadedAttention(
            (linear_q): Linear(in_features=256, out_features=256, bias=True)
            (linear_k): Linear(in_features=256, out_features=256, bias=True)
            (linear_v): Linear(in_features=256, out_features=256, bias=True)
            (linear_out): Linear(in_features=256, out_features=256, bias=True)
            (dropout): Dropout(p=0.1, inplace=False)
          )
          (src_attn): MultiHeadedAttention(
            (linear_q): Linear(in_features=256, out_features=256, bias=True)
            (linear_k): Linear(in_features=256, out_features=256, bias=True)
            (linear_v): Linear(in_features=256, out_features=256, bias=True)
            (linear_out): Linear(in_features=256, out_features=256, bias=True)
            (dropout): Dropout(p=0.1, inplace=False)
          )
          (feed_forward): PositionwiseFeedForward(
            (w_1): Linear(in_features=256, out_features=2048, bias=True)
            (activation): ReLU()
            (dropout): Dropout(p=0.1, inplace=False)
            (w_2): Linear(in_features=2048, out_features=256, bias=True)
          )
          (norm1): LayerNorm((256,), eps=1e-05, elementwise_affine=True)
          (norm2): LayerNorm((256,), eps=1e-05, elementwise_affine=True)
          (norm3): LayerNorm((256,), eps=1e-05, elementwise_affine=True)
          (dropout): Dropout(p=0.1, inplace=False)
          (concat_linear1): Identity()
          (concat_linear2): Identity()
        )
        (2): DecoderLayer(
          (self_attn): MultiHeadedAttention(
            (linear_q): Linear(in_features=256, out_features=256, bias=True)
            (linear_k): Linear(in_features=256, out_features=256, bias=True)
            (linear_v): Linear(in_features=256, out_features=256, bias=True)
            (linear_out): Linear(in_features=256, out_features=256, bias=True)
            (dropout): Dropout(p=0.1, inplace=False)
          )
          (src_attn): MultiHeadedAttention(
            (linear_q): Linear(in_features=256, out_features=256, bias=True)
            (linear_k): Linear(in_features=256, out_features=256, bias=True)
            (linear_v): Linear(in_features=256, out_features=256, bias=True)
            (linear_out): Linear(in_features=256, out_features=256, bias=True)
            (dropout): Dropout(p=0.1, inplace=False)
          )
          (feed_forward): PositionwiseFeedForward(
            (w_1): Linear(in_features=256, out_features=2048, bias=True)
            (activation): ReLU()
            (dropout): Dropout(p=0.1, inplace=False)
            (w_2): Linear(in_features=2048, out_features=256, bias=True)
          )
          (norm1): LayerNorm((256,), eps=1e-05, elementwise_affine=True)
          (norm2): LayerNorm((256,), eps=1e-05, elementwise_affine=True)
          (norm3): LayerNorm((256,), eps=1e-05, elementwise_affine=True)
          (dropout): Dropout(p=0.1, inplace=False)
          (concat_linear1): Identity()
          (concat_linear2): Identity()
        )
      )
    )
    (right_decoder): TransformerDecoder(
      (embed): Sequential(
        (0): Embedding(5002, 256)
        (1): PositionalEncoding(
          (dropout): Dropout(p=0.1, inplace=False)
        )
      )
      (after_norm): LayerNorm((256,), eps=1e-05, elementwise_affine=True)
      (output_layer): Linear(in_features=256, out_features=5002, bias=True)
      (decoders): ModuleList(
        (0): DecoderLayer(
          (self_attn): MultiHeadedAttention(
            (linear_q): Linear(in_features=256, out_features=256, bias=True)
            (linear_k): Linear(in_features=256, out_features=256, bias=True)
            (linear_v): Linear(in_features=256, out_features=256, bias=True)
            (linear_out): Linear(in_features=256, out_features=256, bias=True)
            (dropout): Dropout(p=0.1, inplace=False)
          )
          (src_attn): MultiHeadedAttention(
            (linear_q): Linear(in_features=256, out_features=256, bias=True)
            (linear_k): Linear(in_features=256, out_features=256, bias=True)
            (linear_v): Linear(in_features=256, out_features=256, bias=True)
            (linear_out): Linear(in_features=256, out_features=256, bias=True)
            (dropout): Dropout(p=0.1, inplace=False)
          )
          (feed_forward): PositionwiseFeedForward(
            (w_1): Linear(in_features=256, out_features=2048, bias=True)
            (activation): ReLU()
            (dropout): Dropout(p=0.1, inplace=False)
            (w_2): Linear(in_features=2048, out_features=256, bias=True)
          )
          (norm1): LayerNorm((256,), eps=1e-05, elementwise_affine=True)
          (norm2): LayerNorm((256,), eps=1e-05, elementwise_affine=True)
          (norm3): LayerNorm((256,), eps=1e-05, elementwise_affine=True)
          (dropout): Dropout(p=0.1, inplace=False)
          (concat_linear1): Identity()
          (concat_linear2): Identity()
        )
        (1): DecoderLayer(
          (self_attn): MultiHeadedAttention(
            (linear_q): Linear(in_features=256, out_features=256, bias=True)
            (linear_k): Linear(in_features=256, out_features=256, bias=True)
            (linear_v): Linear(in_features=256, out_features=256, bias=True)
            (linear_out): Linear(in_features=256, out_features=256, bias=True)
            (dropout): Dropout(p=0.1, inplace=False)
          )
          (src_attn): MultiHeadedAttention(
            (linear_q): Linear(in_features=256, out_features=256, bias=True)
            (linear_k): Linear(in_features=256, out_features=256, bias=True)
            (linear_v): Linear(in_features=256, out_features=256, bias=True)
            (linear_out): Linear(in_features=256, out_features=256, bias=True)
            (dropout): Dropout(p=0.1, inplace=False)
          )
          (feed_forward): PositionwiseFeedForward(
            (w_1): Linear(in_features=256, out_features=2048, bias=True)
            (activation): ReLU()
            (dropout): Dropout(p=0.1, inplace=False)
            (w_2): Linear(in_features=2048, out_features=256, bias=True)
          )
          (norm1): LayerNorm((256,), eps=1e-05, elementwise_affine=True)
          (norm2): LayerNorm((256,), eps=1e-05, elementwise_affine=True)
          (norm3): LayerNorm((256,), eps=1e-05, elementwise_affine=True)
          (dropout): Dropout(p=0.1, inplace=False)
          (concat_linear1): Identity()
          (concat_linear2): Identity()
        )
        (2): DecoderLayer(
          (self_attn): MultiHeadedAttention(
            (linear_q): Linear(in_features=256, out_features=256, bias=True)
            (linear_k): Linear(in_features=256, out_features=256, bias=True)
            (linear_v): Linear(in_features=256, out_features=256, bias=True)
            (linear_out): Linear(in_features=256, out_features=256, bias=True)
            (dropout): Dropout(p=0.1, inplace=False)
          )
          (src_attn): MultiHeadedAttention(
            (linear_q): Linear(in_features=256, out_features=256, bias=True)
            (linear_k): Linear(in_features=256, out_features=256, bias=True)
            (linear_v): Linear(in_features=256, out_features=256, bias=True)
            (linear_out): Linear(in_features=256, out_features=256, bias=True)
            (dropout): Dropout(p=0.1, inplace=False)
          )
          (feed_forward): PositionwiseFeedForward(
            (w_1): Linear(in_features=256, out_features=2048, bias=True)
            (activation): ReLU()
            (dropout): Dropout(p=0.1, inplace=False)
            (w_2): Linear(in_features=2048, out_features=256, bias=True)
          )
          (norm1): LayerNorm((256,), eps=1e-05, elementwise_affine=True)
          (norm2): LayerNorm((256,), eps=1e-05, elementwise_affine=True)
          (norm3): LayerNorm((256,), eps=1e-05, elementwise_affine=True)
          (dropout): Dropout(p=0.1, inplace=False)
          (concat_linear1): Identity()
          (concat_linear2): Identity()
        )
      )
    )
  )
  (ctc): CTC(
    (ctc_lo): Linear(in_features=256, out_features=5002, bias=True)
    (ctc_loss): CTCLoss()
  )
  (context_bias): ContextBias(
    (context_extractor): BLSTM(
      (word_embedding): Embedding(5002, 256)
      (sen_rnn): LSTM(256, 256, batch_first=True, bidirectional=True)
    )
    (context_encoder): Sequential(
      (0): Linear(in_features=1024, out_features=256, bias=True)
      (1): LayerNorm((256,), eps=1e-05, elementwise_affine=True)
    )
    (encoder_bias): MultiHeadedAttention(
      (linear_q): Linear(in_features=256, out_features=256, bias=True)
      (linear_k): Linear(in_features=256, out_features=256, bias=True)
      (linear_v): Linear(in_features=256, out_features=256, bias=True)
      (linear_out): Linear(in_features=256, out_features=256, bias=True)
      (dropout): Dropout(p=0.0, inplace=False)
    )
    (predictor_bias): MultiHeadedAttention(
      (linear_q): Linear(in_features=256, out_features=256, bias=True)
      (linear_k): Linear(in_features=256, out_features=256, bias=True)
      (linear_v): Linear(in_features=256, out_features=256, bias=True)
      (linear_out): Linear(in_features=256, out_features=256, bias=True)
      (dropout): Dropout(p=0.0, inplace=False)
    )
    (hw_bias): MultiHeadedAttention(
      (linear_q): Linear(in_features=100, out_features=100, bias=True)
      (linear_k): Linear(in_features=100, out_features=100, bias=True)
      (linear_v): Linear(in_features=100, out_features=100, bias=True)
      (linear_out): Linear(in_features=100, out_features=100, bias=True)
      (dropout): Dropout(p=0.0, inplace=False)
    )
    (encoder_norm): LayerNorm((256,), eps=1e-05, elementwise_affine=True)
    (encoder_bias_norm): LayerNorm((256,), eps=1e-05, elementwise_affine=True)
    (encoder_ffn): Linear(in_features=512, out_features=256, bias=True)
    (encoder_bias_combine): Linear(in_features=512, out_features=256, bias=True)
    (encdoer_bias_bias_norm): LayerNorm((256,), eps=1e-05, elementwise_affine=True)
    (encdoer_bias_out_norm): LayerNorm((256,), eps=1e-05, elementwise_affine=True)
    (predictor_bias_combine): Linear(in_features=512, out_features=256, bias=True)
    (predictor_bias_bias_norm): LayerNorm((256,), eps=1e-05, elementwise_affine=True)
    (predictor_bias_out_norm): LayerNorm((256,), eps=1e-05, elementwise_affine=True)
    (hw_bias_norm): LayerNorm((100,), eps=1e-05, elementwise_affine=True)
    (hw_output_layer): Linear(in_features=100, out_features=2, bias=True)
    (hw_output_layer_enc): Linear(in_features=256, out_features=100, bias=True)
    (hw_output_layer_dec): Linear(in_features=256, out_features=100, bias=True)
  )
  (predictor): RNNPredictor(
    (embed): Embedding(5002, 256)
    (dropout): Dropout(p=0.1, inplace=False)
    (rnn): LSTM(256, 256, num_layers=2, batch_first=True, dropout=0.1)
    (projection): Linear(in_features=256, out_features=256, bias=True)
  )
  (joint): TransducerJoint(
    (activatoin): Tanh()
    (enc_ffn): Linear(in_features=256, out_features=512, bias=True)
    (pred_ffn): Linear(in_features=256, out_features=512, bias=True)
    (ffn_out): Linear(in_features=512, out_features=5002, bias=True)
  )
  (hw_criterion): CrossEntropyLoss()
  (criterion_att): LabelSmoothingLoss(
    (criterion): KLDivLoss()
  )
)
the number of model params: 58195794
Transducer(
  (encoder): ConformerEncoder(
    (global_cmvn): GlobalCMVN()
    (embed): Conv2dSubsampling4(
      (conv): Sequential(
        (0): Conv2d(1, 256, kernel_size=(3, 3), stride=(2, 2))
        (1): ReLU()
        (2): Conv2d(256, 256, kernel_size=(3, 3), stride=(2, 2))
        (3): ReLU()
      )
      (out): Sequential(
        (0): Linear(in_features=4864, out_features=256, bias=True)
      )
      (pos_enc): RelPositionalEncoding(
        (dropout): Dropout(p=0.1, inplace=False)
      )
    )
    (after_norm): LayerNorm((256,), eps=1e-05, elementwise_affine=True)
    (encoders): ModuleList(
      (0): ConformerEncoderLayer(
        (self_attn): RelPositionMultiHeadedAttention(
          (linear_q): Linear(in_features=256, out_features=256, bias=True)
          (linear_k): Linear(in_features=256, out_features=256, bias=True)
          (linear_v): Linear(in_features=256, out_features=256, bias=True)
          (linear_out): Linear(in_features=256, out_features=256, bias=True)
          (dropout): Dropout(p=0.1, inplace=False)
          (linear_pos): Linear(in_features=256, out_features=256, bias=False)
        )
        (feed_forward): PositionwiseFeedForward(
          (w_1): Linear(in_features=256, out_features=2048, bias=True)
          (activation): SiLU()
          (dropout): Dropout(p=0.1, inplace=False)
          (w_2): Linear(in_features=2048, out_features=256, bias=True)
        )
        (feed_forward_macaron): PositionwiseFeedForward(
          (w_1): Linear(in_features=256, out_features=2048, bias=True)
          (activation): SiLU()
          (dropout): Dropout(p=0.1, inplace=False)
          (w_2): Linear(in_features=2048, out_features=256, bias=True)
        )
        (conv_module): ConvolutionModule(
          (pointwise_conv1): Conv1d(256, 512, kernel_size=(1,), stride=(1,))
          (depthwise_conv): Conv1d(256, 256, kernel_size=(15,), stride=(1,), padding=(7,), groups=256)
          (norm): BatchNorm1d(256, eps=1e-05, momentum=0.1, affine=True, track_running_stats=True)
          (pointwise_conv2): Conv1d(256, 256, kernel_size=(1,), stride=(1,))
          (activation): SiLU()
        )
        (norm_ff): LayerNorm((256,), eps=1e-05, elementwise_affine=True)
        (norm_mha): LayerNorm((256,), eps=1e-05, elementwise_affine=True)
        (norm_ff_macaron): LayerNorm((256,), eps=1e-05, elementwise_affine=True)
        (norm_conv): LayerNorm((256,), eps=1e-05, elementwise_affine=True)
        (norm_final): LayerNorm((256,), eps=1e-05, elementwise_affine=True)
        (dropout): Dropout(p=0.1, inplace=False)
        (concat_linear): Identity()
      )
      (1): ConformerEncoderLayer(
        (self_attn): RelPositionMultiHeadedAttention(
          (linear_q): Linear(in_features=256, out_features=256, bias=True)
          (linear_k): Linear(in_features=256, out_features=256, bias=True)
          (linear_v): Linear(in_features=256, out_features=256, bias=True)
          (linear_out): Linear(in_features=256, out_features=256, bias=True)
          (dropout): Dropout(p=0.1, inplace=False)
          (linear_pos): Linear(in_features=256, out_features=256, bias=False)
        )
        (feed_forward): PositionwiseFeedForward(
          (w_1): Linear(in_features=256, out_features=2048, bias=True)
          (activation): SiLU()
          (dropout): Dropout(p=0.1, inplace=False)
          (w_2): Linear(in_features=2048, out_features=256, bias=True)
        )
        (feed_forward_macaron): PositionwiseFeedForward(
          (w_1): Linear(in_features=256, out_features=2048, bias=True)
          (activation): SiLU()
          (dropout): Dropout(p=0.1, inplace=False)
          (w_2): Linear(in_features=2048, out_features=256, bias=True)
        )
        (conv_module): ConvolutionModule(
          (pointwise_conv1): Conv1d(256, 512, kernel_size=(1,), stride=(1,))
          (depthwise_conv): Conv1d(256, 256, kernel_size=(15,), stride=(1,), padding=(7,), groups=256)
          (norm): BatchNorm1d(256, eps=1e-05, momentum=0.1, affine=True, track_running_stats=True)
          (pointwise_conv2): Conv1d(256, 256, kernel_size=(1,), stride=(1,))
          (activation): SiLU()
        )
        (norm_ff): LayerNorm((256,), eps=1e-05, elementwise_affine=True)
        (norm_mha): LayerNorm((256,), eps=1e-05, elementwise_affine=True)
        (norm_ff_macaron): LayerNorm((256,), eps=1e-05, elementwise_affine=True)
        (norm_conv): LayerNorm((256,), eps=1e-05, elementwise_affine=True)
        (norm_final): LayerNorm((256,), eps=1e-05, elementwise_affine=True)
        (dropout): Dropout(p=0.1, inplace=False)
        (concat_linear): Identity()
      )
      (2): ConformerEncoderLayer(
        (self_attn): RelPositionMultiHeadedAttention(
          (linear_q): Linear(in_features=256, out_features=256, bias=True)
          (linear_k): Linear(in_features=256, out_features=256, bias=True)
          (linear_v): Linear(in_features=256, out_features=256, bias=True)
          (linear_out): Linear(in_features=256, out_features=256, bias=True)
          (dropout): Dropout(p=0.1, inplace=False)
          (linear_pos): Linear(in_features=256, out_features=256, bias=False)
        )
        (feed_forward): PositionwiseFeedForward(
          (w_1): Linear(in_features=256, out_features=2048, bias=True)
          (activation): SiLU()
          (dropout): Dropout(p=0.1, inplace=False)
          (w_2): Linear(in_features=2048, out_features=256, bias=True)
        )
        (feed_forward_macaron): PositionwiseFeedForward(
          (w_1): Linear(in_features=256, out_features=2048, bias=True)
          (activation): SiLU()
          (dropout): Dropout(p=0.1, inplace=False)
          (w_2): Linear(in_features=2048, out_features=256, bias=True)
        )
        (conv_module): ConvolutionModule(
          (pointwise_conv1): Conv1d(256, 512, kernel_size=(1,), stride=(1,))
          (depthwise_conv): Conv1d(256, 256, kernel_size=(15,), stride=(1,), padding=(7,), groups=256)
          (norm): BatchNorm1d(256, eps=1e-05, momentum=0.1, affine=True, track_running_stats=True)
          (pointwise_conv2): Conv1d(256, 256, kernel_size=(1,), stride=(1,))
          (activation): SiLU()
        )
        (norm_ff): LayerNorm((256,), eps=1e-05, elementwise_affine=True)
        (norm_mha): LayerNorm((256,), eps=1e-05, elementwise_affine=True)
        (norm_ff_macaron): LayerNorm((256,), eps=1e-05, elementwise_affine=True)
        (norm_conv): LayerNorm((256,), eps=1e-05, elementwise_affine=True)
        (norm_final): LayerNorm((256,), eps=1e-05, elementwise_affine=True)
        (dropout): Dropout(p=0.1, inplace=False)
        (concat_linear): Identity()
      )
      (3): ConformerEncoderLayer(
        (self_attn): RelPositionMultiHeadedAttention(
          (linear_q): Linear(in_features=256, out_features=256, bias=True)
          (linear_k): Linear(in_features=256, out_features=256, bias=True)
          (linear_v): Linear(in_features=256, out_features=256, bias=True)
          (linear_out): Linear(in_features=256, out_features=256, bias=True)
          (dropout): Dropout(p=0.1, inplace=False)
          (linear_pos): Linear(in_features=256, out_features=256, bias=False)
        )
        (feed_forward): PositionwiseFeedForward(
          (w_1): Linear(in_features=256, out_features=2048, bias=True)
          (activation): SiLU()
          (dropout): Dropout(p=0.1, inplace=False)
          (w_2): Linear(in_features=2048, out_features=256, bias=True)
        )
        (feed_forward_macaron): PositionwiseFeedForward(
          (w_1): Linear(in_features=256, out_features=2048, bias=True)
          (activation): SiLU()
          (dropout): Dropout(p=0.1, inplace=False)
          (w_2): Linear(in_features=2048, out_features=256, bias=True)
        )
        (conv_module): ConvolutionModule(
          (pointwise_conv1): Conv1d(256, 512, kernel_size=(1,), stride=(1,))
          (depthwise_conv): Conv1d(256, 256, kernel_size=(15,), stride=(1,), padding=(7,), groups=256)
          (norm): BatchNorm1d(256, eps=1e-05, momentum=0.1, affine=True, track_running_stats=True)
          (pointwise_conv2): Conv1d(256, 256, kernel_size=(1,), stride=(1,))
          (activation): SiLU()
        )
        (norm_ff): LayerNorm((256,), eps=1e-05, elementwise_affine=True)
        (norm_mha): LayerNorm((256,), eps=1e-05, elementwise_affine=True)
        (norm_ff_macaron): LayerNorm((256,), eps=1e-05, elementwise_affine=True)
        (norm_conv): LayerNorm((256,), eps=1e-05, elementwise_affine=True)
        (norm_final): LayerNorm((256,), eps=1e-05, elementwise_affine=True)
        (dropout): Dropout(p=0.1, inplace=False)
        (concat_linear): Identity()
      )
      (4): ConformerEncoderLayer(
        (self_attn): RelPositionMultiHeadedAttention(
          (linear_q): Linear(in_features=256, out_features=256, bias=True)
          (linear_k): Linear(in_features=256, out_features=256, bias=True)
          (linear_v): Linear(in_features=256, out_features=256, bias=True)
          (linear_out): Linear(in_features=256, out_features=256, bias=True)
          (dropout): Dropout(p=0.1, inplace=False)
          (linear_pos): Linear(in_features=256, out_features=256, bias=False)
        )
        (feed_forward): PositionwiseFeedForward(
          (w_1): Linear(in_features=256, out_features=2048, bias=True)
          (activation): SiLU()
          (dropout): Dropout(p=0.1, inplace=False)
          (w_2): Linear(in_features=2048, out_features=256, bias=True)
        )
        (feed_forward_macaron): PositionwiseFeedForward(
          (w_1): Linear(in_features=256, out_features=2048, bias=True)
          (activation): SiLU()
          (dropout): Dropout(p=0.1, inplace=False)
          (w_2): Linear(in_features=2048, out_features=256, bias=True)
        )
        (conv_module): ConvolutionModule(
          (pointwise_conv1): Conv1d(256, 512, kernel_size=(1,), stride=(1,))
          (depthwise_conv): Conv1d(256, 256, kernel_size=(15,), stride=(1,), padding=(7,), groups=256)
          (norm): BatchNorm1d(256, eps=1e-05, momentum=0.1, affine=True, track_running_stats=True)
          (pointwise_conv2): Conv1d(256, 256, kernel_size=(1,), stride=(1,))
          (activation): SiLU()
        )
        (norm_ff): LayerNorm((256,), eps=1e-05, elementwise_affine=True)
        (norm_mha): LayerNorm((256,), eps=1e-05, elementwise_affine=True)
        (norm_ff_macaron): LayerNorm((256,), eps=1e-05, elementwise_affine=True)
        (norm_conv): LayerNorm((256,), eps=1e-05, elementwise_affine=True)
        (norm_final): LayerNorm((256,), eps=1e-05, elementwise_affine=True)
        (dropout): Dropout(p=0.1, inplace=False)
        (concat_linear): Identity()
      )
      (5): ConformerEncoderLayer(
        (self_attn): RelPositionMultiHeadedAttention(
          (linear_q): Linear(in_features=256, out_features=256, bias=True)
          (linear_k): Linear(in_features=256, out_features=256, bias=True)
          (linear_v): Linear(in_features=256, out_features=256, bias=True)
          (linear_out): Linear(in_features=256, out_features=256, bias=True)
          (dropout): Dropout(p=0.1, inplace=False)
          (linear_pos): Linear(in_features=256, out_features=256, bias=False)
        )
        (feed_forward): PositionwiseFeedForward(
          (w_1): Linear(in_features=256, out_features=2048, bias=True)
          (activation): SiLU()
          (dropout): Dropout(p=0.1, inplace=False)
          (w_2): Linear(in_features=2048, out_features=256, bias=True)
        )
        (feed_forward_macaron): PositionwiseFeedForward(
          (w_1): Linear(in_features=256, out_features=2048, bias=True)
          (activation): SiLU()
          (dropout): Dropout(p=0.1, inplace=False)
          (w_2): Linear(in_features=2048, out_features=256, bias=True)
        )
        (conv_module): ConvolutionModule(
          (pointwise_conv1): Conv1d(256, 512, kernel_size=(1,), stride=(1,))
          (depthwise_conv): Conv1d(256, 256, kernel_size=(15,), stride=(1,), padding=(7,), groups=256)
          (norm): BatchNorm1d(256, eps=1e-05, momentum=0.1, affine=True, track_running_stats=True)
          (pointwise_conv2): Conv1d(256, 256, kernel_size=(1,), stride=(1,))
          (activation): SiLU()
        )
        (norm_ff): LayerNorm((256,), eps=1e-05, elementwise_affine=True)
        (norm_mha): LayerNorm((256,), eps=1e-05, elementwise_affine=True)
        (norm_ff_macaron): LayerNorm((256,), eps=1e-05, elementwise_affine=True)
        (norm_conv): LayerNorm((256,), eps=1e-05, elementwise_affine=True)
        (norm_final): LayerNorm((256,), eps=1e-05, elementwise_affine=True)
        (dropout): Dropout(p=0.1, inplace=False)
        (concat_linear): Identity()
      )
      (6): ConformerEncoderLayer(
        (self_attn): RelPositionMultiHeadedAttention(
          (linear_q): Linear(in_features=256, out_features=256, bias=True)
          (linear_k): Linear(in_features=256, out_features=256, bias=True)
          (linear_v): Linear(in_features=256, out_features=256, bias=True)
          (linear_out): Linear(in_features=256, out_features=256, bias=True)
          (dropout): Dropout(p=0.1, inplace=False)
          (linear_pos): Linear(in_features=256, out_features=256, bias=False)
        )
        (feed_forward): PositionwiseFeedForward(
          (w_1): Linear(in_features=256, out_features=2048, bias=True)
          (activation): SiLU()
          (dropout): Dropout(p=0.1, inplace=False)
          (w_2): Linear(in_features=2048, out_features=256, bias=True)
        )
        (feed_forward_macaron): PositionwiseFeedForward(
          (w_1): Linear(in_features=256, out_features=2048, bias=True)
          (activation): SiLU()
          (dropout): Dropout(p=0.1, inplace=False)
          (w_2): Linear(in_features=2048, out_features=256, bias=True)
        )
        (conv_module): ConvolutionModule(
          (pointwise_conv1): Conv1d(256, 512, kernel_size=(1,), stride=(1,))
          (depthwise_conv): Conv1d(256, 256, kernel_size=(15,), stride=(1,), padding=(7,), groups=256)
          (norm): BatchNorm1d(256, eps=1e-05, momentum=0.1, affine=True, track_running_stats=True)
          (pointwise_conv2): Conv1d(256, 256, kernel_size=(1,), stride=(1,))
          (activation): SiLU()
        )
        (norm_ff): LayerNorm((256,), eps=1e-05, elementwise_affine=True)
        (norm_mha): LayerNorm((256,), eps=1e-05, elementwise_affine=True)
        (norm_ff_macaron): LayerNorm((256,), eps=1e-05, elementwise_affine=True)
        (norm_conv): LayerNorm((256,), eps=1e-05, elementwise_affine=True)
        (norm_final): LayerNorm((256,), eps=1e-05, elementwise_affine=True)
        (dropout): Dropout(p=0.1, inplace=False)
        (concat_linear): Identity()
      )
      (7): ConformerEncoderLayer(
        (self_attn): RelPositionMultiHeadedAttention(
          (linear_q): Linear(in_features=256, out_features=256, bias=True)
          (linear_k): Linear(in_features=256, out_features=256, bias=True)
          (linear_v): Linear(in_features=256, out_features=256, bias=True)
          (linear_out): Linear(in_features=256, out_features=256, bias=True)
          (dropout): Dropout(p=0.1, inplace=False)
          (linear_pos): Linear(in_features=256, out_features=256, bias=False)
        )
        (feed_forward): PositionwiseFeedForward(
          (w_1): Linear(in_features=256, out_features=2048, bias=True)
          (activation): SiLU()
          (dropout): Dropout(p=0.1, inplace=False)
          (w_2): Linear(in_features=2048, out_features=256, bias=True)
        )
        (feed_forward_macaron): PositionwiseFeedForward(
          (w_1): Linear(in_features=256, out_features=2048, bias=True)
          (activation): SiLU()
          (dropout): Dropout(p=0.1, inplace=False)
          (w_2): Linear(in_features=2048, out_features=256, bias=True)
        )
        (conv_module): ConvolutionModule(
          (pointwise_conv1): Conv1d(256, 512, kernel_size=(1,), stride=(1,))
          (depthwise_conv): Conv1d(256, 256, kernel_size=(15,), stride=(1,), padding=(7,), groups=256)
          (norm): BatchNorm1d(256, eps=1e-05, momentum=0.1, affine=True, track_running_stats=True)
          (pointwise_conv2): Conv1d(256, 256, kernel_size=(1,), stride=(1,))
          (activation): SiLU()
        )
        (norm_ff): LayerNorm((256,), eps=1e-05, elementwise_affine=True)
        (norm_mha): LayerNorm((256,), eps=1e-05, elementwise_affine=True)
        (norm_ff_macaron): LayerNorm((256,), eps=1e-05, elementwise_affine=True)
        (norm_conv): LayerNorm((256,), eps=1e-05, elementwise_affine=True)
        (norm_final): LayerNorm((256,), eps=1e-05, elementwise_affine=True)
        (dropout): Dropout(p=0.1, inplace=False)
        (concat_linear): Identity()
      )
      (8): ConformerEncoderLayer(
        (self_attn): RelPositionMultiHeadedAttention(
          (linear_q): Linear(in_features=256, out_features=256, bias=True)
          (linear_k): Linear(in_features=256, out_features=256, bias=True)
          (linear_v): Linear(in_features=256, out_features=256, bias=True)
          (linear_out): Linear(in_features=256, out_features=256, bias=True)
          (dropout): Dropout(p=0.1, inplace=False)
          (linear_pos): Linear(in_features=256, out_features=256, bias=False)
        )
        (feed_forward): PositionwiseFeedForward(
          (w_1): Linear(in_features=256, out_features=2048, bias=True)
          (activation): SiLU()
          (dropout): Dropout(p=0.1, inplace=False)
          (w_2): Linear(in_features=2048, out_features=256, bias=True)
        )
        (feed_forward_macaron): PositionwiseFeedForward(
          (w_1): Linear(in_features=256, out_features=2048, bias=True)
          (activation): SiLU()
          (dropout): Dropout(p=0.1, inplace=False)
          (w_2): Linear(in_features=2048, out_features=256, bias=True)
        )
        (conv_module): ConvolutionModule(
          (pointwise_conv1): Conv1d(256, 512, kernel_size=(1,), stride=(1,))
          (depthwise_conv): Conv1d(256, 256, kernel_size=(15,), stride=(1,), padding=(7,), groups=256)
          (norm): BatchNorm1d(256, eps=1e-05, momentum=0.1, affine=True, track_running_stats=True)
          (pointwise_conv2): Conv1d(256, 256, kernel_size=(1,), stride=(1,))
          (activation): SiLU()
        )
        (norm_ff): LayerNorm((256,), eps=1e-05, elementwise_affine=True)
        (norm_mha): LayerNorm((256,), eps=1e-05, elementwise_affine=True)
        (norm_ff_macaron): LayerNorm((256,), eps=1e-05, elementwise_affine=True)
        (norm_conv): LayerNorm((256,), eps=1e-05, elementwise_affine=True)
        (norm_final): LayerNorm((256,), eps=1e-05, elementwise_affine=True)
        (dropout): Dropout(p=0.1, inplace=False)
        (concat_linear): Identity()
      )
      (9): ConformerEncoderLayer(
        (self_attn): RelPositionMultiHeadedAttention(
          (linear_q): Linear(in_features=256, out_features=256, bias=True)
          (linear_k): Linear(in_features=256, out_features=256, bias=True)
          (linear_v): Linear(in_features=256, out_features=256, bias=True)
          (linear_out): Linear(in_features=256, out_features=256, bias=True)
          (dropout): Dropout(p=0.1, inplace=False)
          (linear_pos): Linear(in_features=256, out_features=256, bias=False)
        )
        (feed_forward): PositionwiseFeedForward(
          (w_1): Linear(in_features=256, out_features=2048, bias=True)
          (activation): SiLU()
          (dropout): Dropout(p=0.1, inplace=False)
          (w_2): Linear(in_features=2048, out_features=256, bias=True)
        )
        (feed_forward_macaron): PositionwiseFeedForward(
          (w_1): Linear(in_features=256, out_features=2048, bias=True)
          (activation): SiLU()
          (dropout): Dropout(p=0.1, inplace=False)
          (w_2): Linear(in_features=2048, out_features=256, bias=True)
        )
        (conv_module): ConvolutionModule(
          (pointwise_conv1): Conv1d(256, 512, kernel_size=(1,), stride=(1,))
          (depthwise_conv): Conv1d(256, 256, kernel_size=(15,), stride=(1,), padding=(7,), groups=256)
          (norm): BatchNorm1d(256, eps=1e-05, momentum=0.1, affine=True, track_running_stats=True)
          (pointwise_conv2): Conv1d(256, 256, kernel_size=(1,), stride=(1,))
          (activation): SiLU()
        )
        (norm_ff): LayerNorm((256,), eps=1e-05, elementwise_affine=True)
        (norm_mha): LayerNorm((256,), eps=1e-05, elementwise_affine=True)
        (norm_ff_macaron): LayerNorm((256,), eps=1e-05, elementwise_affine=True)
        (norm_conv): LayerNorm((256,), eps=1e-05, elementwise_affine=True)
        (norm_final): LayerNorm((256,), eps=1e-05, elementwise_affine=True)
        (dropout): Dropout(p=0.1, inplace=False)
        (concat_linear): Identity()
      )
      (10): ConformerEncoderLayer(
        (self_attn): RelPositionMultiHeadedAttention(
          (linear_q): Linear(in_features=256, out_features=256, bias=True)
          (linear_k): Linear(in_features=256, out_features=256, bias=True)
          (linear_v): Linear(in_features=256, out_features=256, bias=True)
          (linear_out): Linear(in_features=256, out_features=256, bias=True)
          (dropout): Dropout(p=0.1, inplace=False)
          (linear_pos): Linear(in_features=256, out_features=256, bias=False)
        )
        (feed_forward): PositionwiseFeedForward(
          (w_1): Linear(in_features=256, out_features=2048, bias=True)
          (activation): SiLU()
          (dropout): Dropout(p=0.1, inplace=False)
          (w_2): Linear(in_features=2048, out_features=256, bias=True)
        )
        (feed_forward_macaron): PositionwiseFeedForward(
          (w_1): Linear(in_features=256, out_features=2048, bias=True)
          (activation): SiLU()
          (dropout): Dropout(p=0.1, inplace=False)
          (w_2): Linear(in_features=2048, out_features=256, bias=True)
        )
        (conv_module): ConvolutionModule(
          (pointwise_conv1): Conv1d(256, 512, kernel_size=(1,), stride=(1,))
          (depthwise_conv): Conv1d(256, 256, kernel_size=(15,), stride=(1,), padding=(7,), groups=256)
          (norm): BatchNorm1d(256, eps=1e-05, momentum=0.1, affine=True, track_running_stats=True)
          (pointwise_conv2): Conv1d(256, 256, kernel_size=(1,), stride=(1,))
          (activation): SiLU()
        )
        (norm_ff): LayerNorm((256,), eps=1e-05, elementwise_affine=True)
        (norm_mha): LayerNorm((256,), eps=1e-05, elementwise_affine=True)
        (norm_ff_macaron): LayerNorm((256,), eps=1e-05, elementwise_affine=True)
        (norm_conv): LayerNorm((256,), eps=1e-05, elementwise_affine=True)
        (norm_final): LayerNorm((256,), eps=1e-05, elementwise_affine=True)
        (dropout): Dropout(p=0.1, inplace=False)
        (concat_linear): Identity()
      )
      (11): ConformerEncoderLayer(
        (self_attn): RelPositionMultiHeadedAttention(
          (linear_q): Linear(in_features=256, out_features=256, bias=True)
          (linear_k): Linear(in_features=256, out_features=256, bias=True)
          (linear_v): Linear(in_features=256, out_features=256, bias=True)
          (linear_out): Linear(in_features=256, out_features=256, bias=True)
          (dropout): Dropout(p=0.1, inplace=False)
          (linear_pos): Linear(in_features=256, out_features=256, bias=False)
        )
        (feed_forward): PositionwiseFeedForward(
          (w_1): Linear(in_features=256, out_features=2048, bias=True)
          (activation): SiLU()
          (dropout): Dropout(p=0.1, inplace=False)
          (w_2): Linear(in_features=2048, out_features=256, bias=True)
        )
        (feed_forward_macaron): PositionwiseFeedForward(
          (w_1): Linear(in_features=256, out_features=2048, bias=True)
          (activation): SiLU()
          (dropout): Dropout(p=0.1, inplace=False)
          (w_2): Linear(in_features=2048, out_features=256, bias=True)
        )
        (conv_module): ConvolutionModule(
          (pointwise_conv1): Conv1d(256, 512, kernel_size=(1,), stride=(1,))
          (depthwise_conv): Conv1d(256, 256, kernel_size=(15,), stride=(1,), padding=(7,), groups=256)
          (norm): BatchNorm1d(256, eps=1e-05, momentum=0.1, affine=True, track_running_stats=True)
          (pointwise_conv2): Conv1d(256, 256, kernel_size=(1,), stride=(1,))
          (activation): SiLU()
        )
        (norm_ff): LayerNorm((256,), eps=1e-05, elementwise_affine=True)
        (norm_mha): LayerNorm((256,), eps=1e-05, elementwise_affine=True)
        (norm_ff_macaron): LayerNorm((256,), eps=1e-05, elementwise_affine=True)
        (norm_conv): LayerNorm((256,), eps=1e-05, elementwise_affine=True)
        (norm_final): LayerNorm((256,), eps=1e-05, elementwise_affine=True)
        (dropout): Dropout(p=0.1, inplace=False)
        (concat_linear): Identity()
      )
    )
  )
  (decoder): BiTransformerDecoder(
    (left_decoder): TransformerDecoder(
      (embed): Sequential(
        (0): Embedding(5002, 256)
        (1): PositionalEncoding(
          (dropout): Dropout(p=0.1, inplace=False)
        )
      )
      (after_norm): LayerNorm((256,), eps=1e-05, elementwise_affine=True)
      (output_layer): Linear(in_features=256, out_features=5002, bias=True)
      (decoders): ModuleList(
        (0): DecoderLayer(
          (self_attn): MultiHeadedAttention(
            (linear_q): Linear(in_features=256, out_features=256, bias=True)
            (linear_k): Linear(in_features=256, out_features=256, bias=True)
            (linear_v): Linear(in_features=256, out_features=256, bias=True)
            (linear_out): Linear(in_features=256, out_features=256, bias=True)
            (dropout): Dropout(p=0.1, inplace=False)
          )
          (src_attn): MultiHeadedAttention(
            (linear_q): Linear(in_features=256, out_features=256, bias=True)
            (linear_k): Linear(in_features=256, out_features=256, bias=True)
            (linear_v): Linear(in_features=256, out_features=256, bias=True)
            (linear_out): Linear(in_features=256, out_features=256, bias=True)
            (dropout): Dropout(p=0.1, inplace=False)
          )
          (feed_forward): PositionwiseFeedForward(
            (w_1): Linear(in_features=256, out_features=2048, bias=True)
            (activation): ReLU()
            (dropout): Dropout(p=0.1, inplace=False)
            (w_2): Linear(in_features=2048, out_features=256, bias=True)
          )
          (norm1): LayerNorm((256,), eps=1e-05, elementwise_affine=True)
          (norm2): LayerNorm((256,), eps=1e-05, elementwise_affine=True)
          (norm3): LayerNorm((256,), eps=1e-05, elementwise_affine=True)
          (dropout): Dropout(p=0.1, inplace=False)
          (concat_linear1): Identity()
          (concat_linear2): Identity()
        )
        (1): DecoderLayer(
          (self_attn): MultiHeadedAttention(
            (linear_q): Linear(in_features=256, out_features=256, bias=True)
            (linear_k): Linear(in_features=256, out_features=256, bias=True)
            (linear_v): Linear(in_features=256, out_features=256, bias=True)
            (linear_out): Linear(in_features=256, out_features=256, bias=True)
            (dropout): Dropout(p=0.1, inplace=False)
          )
          (src_attn): MultiHeadedAttention(
            (linear_q): Linear(in_features=256, out_features=256, bias=True)
            (linear_k): Linear(in_features=256, out_features=256, bias=True)
            (linear_v): Linear(in_features=256, out_features=256, bias=True)
            (linear_out): Linear(in_features=256, out_features=256, bias=True)
            (dropout): Dropout(p=0.1, inplace=False)
          )
          (feed_forward): PositionwiseFeedForward(
            (w_1): Linear(in_features=256, out_features=2048, bias=True)
            (activation): ReLU()
            (dropout): Dropout(p=0.1, inplace=False)
            (w_2): Linear(in_features=2048, out_features=256, bias=True)
          )
          (norm1): LayerNorm((256,), eps=1e-05, elementwise_affine=True)
          (norm2): LayerNorm((256,), eps=1e-05, elementwise_affine=True)
          (norm3): LayerNorm((256,), eps=1e-05, elementwise_affine=True)
          (dropout): Dropout(p=0.1, inplace=False)
          (concat_linear1): Identity()
          (concat_linear2): Identity()
        )
        (2): DecoderLayer(
          (self_attn): MultiHeadedAttention(
            (linear_q): Linear(in_features=256, out_features=256, bias=True)
            (linear_k): Linear(in_features=256, out_features=256, bias=True)
            (linear_v): Linear(in_features=256, out_features=256, bias=True)
            (linear_out): Linear(in_features=256, out_features=256, bias=True)
            (dropout): Dropout(p=0.1, inplace=False)
          )
          (src_attn): MultiHeadedAttention(
            (linear_q): Linear(in_features=256, out_features=256, bias=True)
            (linear_k): Linear(in_features=256, out_features=256, bias=True)
            (linear_v): Linear(in_features=256, out_features=256, bias=True)
            (linear_out): Linear(in_features=256, out_features=256, bias=True)
            (dropout): Dropout(p=0.1, inplace=False)
          )
          (feed_forward): PositionwiseFeedForward(
            (w_1): Linear(in_features=256, out_features=2048, bias=True)
            (activation): ReLU()
            (dropout): Dropout(p=0.1, inplace=False)
            (w_2): Linear(in_features=2048, out_features=256, bias=True)
          )
          (norm1): LayerNorm((256,), eps=1e-05, elementwise_affine=True)
          (norm2): LayerNorm((256,), eps=1e-05, elementwise_affine=True)
          (norm3): LayerNorm((256,), eps=1e-05, elementwise_affine=True)
          (dropout): Dropout(p=0.1, inplace=False)
          (concat_linear1): Identity()
          (concat_linear2): Identity()
        )
      )
    )
    (right_decoder): TransformerDecoder(
      (embed): Sequential(
        (0): Embedding(5002, 256)
        (1): PositionalEncoding(
          (dropout): Dropout(p=0.1, inplace=False)
        )
      )
      (after_norm): LayerNorm((256,), eps=1e-05, elementwise_affine=True)
      (output_layer): Linear(in_features=256, out_features=5002, bias=True)
      (decoders): ModuleList(
        (0): DecoderLayer(
          (self_attn): MultiHeadedAttention(
            (linear_q): Linear(in_features=256, out_features=256, bias=True)
            (linear_k): Linear(in_features=256, out_features=256, bias=True)
            (linear_v): Linear(in_features=256, out_features=256, bias=True)
            (linear_out): Linear(in_features=256, out_features=256, bias=True)
            (dropout): Dropout(p=0.1, inplace=False)
          )
          (src_attn): MultiHeadedAttention(
            (linear_q): Linear(in_features=256, out_features=256, bias=True)
            (linear_k): Linear(in_features=256, out_features=256, bias=True)
            (linear_v): Linear(in_features=256, out_features=256, bias=True)
            (linear_out): Linear(in_features=256, out_features=256, bias=True)
            (dropout): Dropout(p=0.1, inplace=False)
          )
          (feed_forward): PositionwiseFeedForward(
            (w_1): Linear(in_features=256, out_features=2048, bias=True)
            (activation): ReLU()
            (dropout): Dropout(p=0.1, inplace=False)
            (w_2): Linear(in_features=2048, out_features=256, bias=True)
          )
          (norm1): LayerNorm((256,), eps=1e-05, elementwise_affine=True)
          (norm2): LayerNorm((256,), eps=1e-05, elementwise_affine=True)
          (norm3): LayerNorm((256,), eps=1e-05, elementwise_affine=True)
          (dropout): Dropout(p=0.1, inplace=False)
          (concat_linear1): Identity()
          (concat_linear2): Identity()
        )
        (1): DecoderLayer(
          (self_attn): MultiHeadedAttention(
            (linear_q): Linear(in_features=256, out_features=256, bias=True)
            (linear_k): Linear(in_features=256, out_features=256, bias=True)
            (linear_v): Linear(in_features=256, out_features=256, bias=True)
            (linear_out): Linear(in_features=256, out_features=256, bias=True)
            (dropout): Dropout(p=0.1, inplace=False)
          )
          (src_attn): MultiHeadedAttention(
            (linear_q): Linear(in_features=256, out_features=256, bias=True)
            (linear_k): Linear(in_features=256, out_features=256, bias=True)
            (linear_v): Linear(in_features=256, out_features=256, bias=True)
            (linear_out): Linear(in_features=256, out_features=256, bias=True)
            (dropout): Dropout(p=0.1, inplace=False)
          )
          (feed_forward): PositionwiseFeedForward(
            (w_1): Linear(in_features=256, out_features=2048, bias=True)
            (activation): ReLU()
            (dropout): Dropout(p=0.1, inplace=False)
            (w_2): Linear(in_features=2048, out_features=256, bias=True)
          )
          (norm1): LayerNorm((256,), eps=1e-05, elementwise_affine=True)
          (norm2): LayerNorm((256,), eps=1e-05, elementwise_affine=True)
          (norm3): LayerNorm((256,), eps=1e-05, elementwise_affine=True)
          (dropout): Dropout(p=0.1, inplace=False)
          (concat_linear1): Identity()
          (concat_linear2): Identity()
        )
        (2): DecoderLayer(
          (self_attn): MultiHeadedAttention(
            (linear_q): Linear(in_features=256, out_features=256, bias=True)
            (linear_k): Linear(in_features=256, out_features=256, bias=True)
            (linear_v): Linear(in_features=256, out_features=256, bias=True)
            (linear_out): Linear(in_features=256, out_features=256, bias=True)
            (dropout): Dropout(p=0.1, inplace=False)
          )
          (src_attn): MultiHeadedAttention(
            (linear_q): Linear(in_features=256, out_features=256, bias=True)
            (linear_k): Linear(in_features=256, out_features=256, bias=True)
            (linear_v): Linear(in_features=256, out_features=256, bias=True)
            (linear_out): Linear(in_features=256, out_features=256, bias=True)
            (dropout): Dropout(p=0.1, inplace=False)
          )
          (feed_forward): PositionwiseFeedForward(
            (w_1): Linear(in_features=256, out_features=2048, bias=True)
            (activation): ReLU()
            (dropout): Dropout(p=0.1, inplace=False)
            (w_2): Linear(in_features=2048, out_features=256, bias=True)
          )
          (norm1): LayerNorm((256,), eps=1e-05, elementwise_affine=True)
          (norm2): LayerNorm((256,), eps=1e-05, elementwise_affine=True)
          (norm3): LayerNorm((256,), eps=1e-05, elementwise_affine=True)
          (dropout): Dropout(p=0.1, inplace=False)
          (concat_linear1): Identity()
          (concat_linear2): Identity()
        )
      )
    )
  )
  (ctc): CTC(
    (ctc_lo): Linear(in_features=256, out_features=5002, bias=True)
    (ctc_loss): CTCLoss()
  )
  (context_bias): ContextBias(
    (context_extractor): BLSTM(
      (word_embedding): Embedding(5002, 256)
      (sen_rnn): LSTM(256, 256, batch_first=True, bidirectional=True)
    )
    (context_encoder): Sequential(
      (0): Linear(in_features=1024, out_features=256, bias=True)
      (1): LayerNorm((256,), eps=1e-05, elementwise_affine=True)
    )
    (encoder_bias): MultiHeadedAttention(
      (linear_q): Linear(in_features=256, out_features=256, bias=True)
      (linear_k): Linear(in_features=256, out_features=256, bias=True)
      (linear_v): Linear(in_features=256, out_features=256, bias=True)
      (linear_out): Linear(in_features=256, out_features=256, bias=True)
      (dropout): Dropout(p=0.0, inplace=False)
    )
    (predictor_bias): MultiHeadedAttention(
      (linear_q): Linear(in_features=256, out_features=256, bias=True)
      (linear_k): Linear(in_features=256, out_features=256, bias=True)
      (linear_v): Linear(in_features=256, out_features=256, bias=True)
      (linear_out): Linear(in_features=256, out_features=256, bias=True)
      (dropout): Dropout(p=0.0, inplace=False)
    )
    (hw_bias): MultiHeadedAttention(
      (linear_q): Linear(in_features=100, out_features=100, bias=True)
      (linear_k): Linear(in_features=100, out_features=100, bias=True)
      (linear_v): Linear(in_features=100, out_features=100, bias=True)
      (linear_out): Linear(in_features=100, out_features=100, bias=True)
      (dropout): Dropout(p=0.0, inplace=False)
    )
    (encoder_norm): LayerNorm((256,), eps=1e-05, elementwise_affine=True)
    (encoder_bias_norm): LayerNorm((256,), eps=1e-05, elementwise_affine=True)
    (encoder_ffn): Linear(in_features=512, out_features=256, bias=True)
    (encoder_bias_combine): Linear(in_features=512, out_features=256, bias=True)
    (encdoer_bias_bias_norm): LayerNorm((256,), eps=1e-05, elementwise_affine=True)
    (encdoer_bias_out_norm): LayerNorm((256,), eps=1e-05, elementwise_affine=True)
    (predictor_bias_combine): Linear(in_features=512, out_features=256, bias=True)
    (predictor_bias_bias_norm): LayerNorm((256,), eps=1e-05, elementwise_affine=True)
    (predictor_bias_out_norm): LayerNorm((256,), eps=1e-05, elementwise_affine=True)
    (hw_bias_norm): LayerNorm((100,), eps=1e-05, elementwise_affine=True)
    (hw_output_layer): Linear(in_features=100, out_features=2, bias=True)
    (hw_output_layer_enc): Linear(in_features=256, out_features=100, bias=True)
    (hw_output_layer_dec): Linear(in_features=256, out_features=100, bias=True)
  )
  (predictor): RNNPredictor(
    (embed): Embedding(5002, 256)
    (dropout): Dropout(p=0.1, inplace=False)
    (rnn): LSTM(256, 256, num_layers=2, batch_first=True, dropout=0.1)
    (projection): Linear(in_features=256, out_features=256, bias=True)
  )
  (joint): TransducerJoint(
    (activatoin): Tanh()
    (enc_ffn): Linear(in_features=256, out_features=512, bias=True)
    (pred_ffn): Linear(in_features=256, out_features=512, bias=True)
    (ffn_out): Linear(in_features=512, out_features=5002, bias=True)
  )
  (hw_criterion): CrossEntropyLoss()
  (criterion_att): LabelSmoothingLoss(
    (criterion): KLDivLoss()
  )
)
the number of model params: 58195794
2023-02-25 14:52:11,217 INFO Epoch 11 TRAIN info lr 4e-08
2023-02-25 14:52:11,219 INFO using accumulate grad, new batch size is 4 times larger than before
Transducer(
  (encoder): ConformerEncoder(
    (global_cmvn): GlobalCMVN()
    (embed): Conv2dSubsampling4(
      (conv): Sequential(
        (0): Conv2d(1, 256, kernel_size=(3, 3), stride=(2, 2))
        (1): ReLU()
        (2): Conv2d(256, 256, kernel_size=(3, 3), stride=(2, 2))
        (3): ReLU()
      )
      (out): Sequential(
        (0): Linear(in_features=4864, out_features=256, bias=True)
      )
      (pos_enc): RelPositionalEncoding(
        (dropout): Dropout(p=0.1, inplace=False)
      )
    )
    (after_norm): LayerNorm((256,), eps=1e-05, elementwise_affine=True)
    (encoders): ModuleList(
      (0): ConformerEncoderLayer(
        (self_attn): RelPositionMultiHeadedAttention(
          (linear_q): Linear(in_features=256, out_features=256, bias=True)
          (linear_k): Linear(in_features=256, out_features=256, bias=True)
          (linear_v): Linear(in_features=256, out_features=256, bias=True)
          (linear_out): Linear(in_features=256, out_features=256, bias=True)
          (dropout): Dropout(p=0.1, inplace=False)
          (linear_pos): Linear(in_features=256, out_features=256, bias=False)
        )
        (feed_forward): PositionwiseFeedForward(
          (w_1): Linear(in_features=256, out_features=2048, bias=True)
          (activation): SiLU()
          (dropout): Dropout(p=0.1, inplace=False)
          (w_2): Linear(in_features=2048, out_features=256, bias=True)
        )
        (feed_forward_macaron): PositionwiseFeedForward(
          (w_1): Linear(in_features=256, out_features=2048, bias=True)
          (activation): SiLU()
          (dropout): Dropout(p=0.1, inplace=False)
          (w_2): Linear(in_features=2048, out_features=256, bias=True)
        )
        (conv_module): ConvolutionModule(
          (pointwise_conv1): Conv1d(256, 512, kernel_size=(1,), stride=(1,))
          (depthwise_conv): Conv1d(256, 256, kernel_size=(15,), stride=(1,), padding=(7,), groups=256)
          (norm): BatchNorm1d(256, eps=1e-05, momentum=0.1, affine=True, track_running_stats=True)
          (pointwise_conv2): Conv1d(256, 256, kernel_size=(1,), stride=(1,))
          (activation): SiLU()
        )
        (norm_ff): LayerNorm((256,), eps=1e-05, elementwise_affine=True)
        (norm_mha): LayerNorm((256,), eps=1e-05, elementwise_affine=True)
        (norm_ff_macaron): LayerNorm((256,), eps=1e-05, elementwise_affine=True)
        (norm_conv): LayerNorm((256,), eps=1e-05, elementwise_affine=True)
        (norm_final): LayerNorm((256,), eps=1e-05, elementwise_affine=True)
        (dropout): Dropout(p=0.1, inplace=False)
        (concat_linear): Identity()
      )
      (1): ConformerEncoderLayer(
        (self_attn): RelPositionMultiHeadedAttention(
          (linear_q): Linear(in_features=256, out_features=256, bias=True)
          (linear_k): Linear(in_features=256, out_features=256, bias=True)
          (linear_v): Linear(in_features=256, out_features=256, bias=True)
          (linear_out): Linear(in_features=256, out_features=256, bias=True)
          (dropout): Dropout(p=0.1, inplace=False)
          (linear_pos): Linear(in_features=256, out_features=256, bias=False)
        )
        (feed_forward): PositionwiseFeedForward(
          (w_1): Linear(in_features=256, out_features=2048, bias=True)
          (activation): SiLU()
          (dropout): Dropout(p=0.1, inplace=False)
          (w_2): Linear(in_features=2048, out_features=256, bias=True)
        )
        (feed_forward_macaron): PositionwiseFeedForward(
          (w_1): Linear(in_features=256, out_features=2048, bias=True)
          (activation): SiLU()
          (dropout): Dropout(p=0.1, inplace=False)
          (w_2): Linear(in_features=2048, out_features=256, bias=True)
        )
        (conv_module): ConvolutionModule(
          (pointwise_conv1): Conv1d(256, 512, kernel_size=(1,), stride=(1,))
          (depthwise_conv): Conv1d(256, 256, kernel_size=(15,), stride=(1,), padding=(7,), groups=256)
          (norm): BatchNorm1d(256, eps=1e-05, momentum=0.1, affine=True, track_running_stats=True)
          (pointwise_conv2): Conv1d(256, 256, kernel_size=(1,), stride=(1,))
          (activation): SiLU()
        )
        (norm_ff): LayerNorm((256,), eps=1e-05, elementwise_affine=True)
        (norm_mha): LayerNorm((256,), eps=1e-05, elementwise_affine=True)
        (norm_ff_macaron): LayerNorm((256,), eps=1e-05, elementwise_affine=True)
        (norm_conv): LayerNorm((256,), eps=1e-05, elementwise_affine=True)
        (norm_final): LayerNorm((256,), eps=1e-05, elementwise_affine=True)
        (dropout): Dropout(p=0.1, inplace=False)
        (concat_linear): Identity()
      )
      (2): ConformerEncoderLayer(
        (self_attn): RelPositionMultiHeadedAttention(
          (linear_q): Linear(in_features=256, out_features=256, bias=True)
          (linear_k): Linear(in_features=256, out_features=256, bias=True)
          (linear_v): Linear(in_features=256, out_features=256, bias=True)
          (linear_out): Linear(in_features=256, out_features=256, bias=True)
          (dropout): Dropout(p=0.1, inplace=False)
          (linear_pos): Linear(in_features=256, out_features=256, bias=False)
        )
        (feed_forward): PositionwiseFeedForward(
          (w_1): Linear(in_features=256, out_features=2048, bias=True)
          (activation): SiLU()
          (dropout): Dropout(p=0.1, inplace=False)
          (w_2): Linear(in_features=2048, out_features=256, bias=True)
        )
        (feed_forward_macaron): PositionwiseFeedForward(
          (w_1): Linear(in_features=256, out_features=2048, bias=True)
          (activation): SiLU()
          (dropout): Dropout(p=0.1, inplace=False)
          (w_2): Linear(in_features=2048, out_features=256, bias=True)
        )
        (conv_module): ConvolutionModule(
          (pointwise_conv1): Conv1d(256, 512, kernel_size=(1,), stride=(1,))
          (depthwise_conv): Conv1d(256, 256, kernel_size=(15,), stride=(1,), padding=(7,), groups=256)
          (norm): BatchNorm1d(256, eps=1e-05, momentum=0.1, affine=True, track_running_stats=True)
          (pointwise_conv2): Conv1d(256, 256, kernel_size=(1,), stride=(1,))
          (activation): SiLU()
        )
        (norm_ff): LayerNorm((256,), eps=1e-05, elementwise_affine=True)
        (norm_mha): LayerNorm((256,), eps=1e-05, elementwise_affine=True)
        (norm_ff_macaron): LayerNorm((256,), eps=1e-05, elementwise_affine=True)
        (norm_conv): LayerNorm((256,), eps=1e-05, elementwise_affine=True)
        (norm_final): LayerNorm((256,), eps=1e-05, elementwise_affine=True)
        (dropout): Dropout(p=0.1, inplace=False)
        (concat_linear): Identity()
      )
      (3): ConformerEncoderLayer(
        (self_attn): RelPositionMultiHeadedAttention(
          (linear_q): Linear(in_features=256, out_features=256, bias=True)
          (linear_k): Linear(in_features=256, out_features=256, bias=True)
          (linear_v): Linear(in_features=256, out_features=256, bias=True)
          (linear_out): Linear(in_features=256, out_features=256, bias=True)
          (dropout): Dropout(p=0.1, inplace=False)
          (linear_pos): Linear(in_features=256, out_features=256, bias=False)
        )
        (feed_forward): PositionwiseFeedForward(
          (w_1): Linear(in_features=256, out_features=2048, bias=True)
          (activation): SiLU()
          (dropout): Dropout(p=0.1, inplace=False)
          (w_2): Linear(in_features=2048, out_features=256, bias=True)
        )
        (feed_forward_macaron): PositionwiseFeedForward(
          (w_1): Linear(in_features=256, out_features=2048, bias=True)
          (activation): SiLU()
          (dropout): Dropout(p=0.1, inplace=False)
          (w_2): Linear(in_features=2048, out_features=256, bias=True)
        )
        (conv_module): ConvolutionModule(
          (pointwise_conv1): Conv1d(256, 512, kernel_size=(1,), stride=(1,))
          (depthwise_conv): Conv1d(256, 256, kernel_size=(15,), stride=(1,), padding=(7,), groups=256)
          (norm): BatchNorm1d(256, eps=1e-05, momentum=0.1, affine=True, track_running_stats=True)
          (pointwise_conv2): Conv1d(256, 256, kernel_size=(1,), stride=(1,))
          (activation): SiLU()
        )
        (norm_ff): LayerNorm((256,), eps=1e-05, elementwise_affine=True)
        (norm_mha): LayerNorm((256,), eps=1e-05, elementwise_affine=True)
        (norm_ff_macaron): LayerNorm((256,), eps=1e-05, elementwise_affine=True)
        (norm_conv): LayerNorm((256,), eps=1e-05, elementwise_affine=True)
        (norm_final): LayerNorm((256,), eps=1e-05, elementwise_affine=True)
        (dropout): Dropout(p=0.1, inplace=False)
        (concat_linear): Identity()
      )
      (4): ConformerEncoderLayer(
        (self_attn): RelPositionMultiHeadedAttention(
          (linear_q): Linear(in_features=256, out_features=256, bias=True)
          (linear_k): Linear(in_features=256, out_features=256, bias=True)
          (linear_v): Linear(in_features=256, out_features=256, bias=True)
          (linear_out): Linear(in_features=256, out_features=256, bias=True)
          (dropout): Dropout(p=0.1, inplace=False)
          (linear_pos): Linear(in_features=256, out_features=256, bias=False)
        )
        (feed_forward): PositionwiseFeedForward(
          (w_1): Linear(in_features=256, out_features=2048, bias=True)
          (activation): SiLU()
          (dropout): Dropout(p=0.1, inplace=False)
          (w_2): Linear(in_features=2048, out_features=256, bias=True)
        )
        (feed_forward_macaron): PositionwiseFeedForward(
          (w_1): Linear(in_features=256, out_features=2048, bias=True)
          (activation): SiLU()
          (dropout): Dropout(p=0.1, inplace=False)
          (w_2): Linear(in_features=2048, out_features=256, bias=True)
        )
        (conv_module): ConvolutionModule(
          (pointwise_conv1): Conv1d(256, 512, kernel_size=(1,), stride=(1,))
          (depthwise_conv): Conv1d(256, 256, kernel_size=(15,), stride=(1,), padding=(7,), groups=256)
          (norm): BatchNorm1d(256, eps=1e-05, momentum=0.1, affine=True, track_running_stats=True)
          (pointwise_conv2): Conv1d(256, 256, kernel_size=(1,), stride=(1,))
          (activation): SiLU()
        )
        (norm_ff): LayerNorm((256,), eps=1e-05, elementwise_affine=True)
        (norm_mha): LayerNorm((256,), eps=1e-05, elementwise_affine=True)
        (norm_ff_macaron): LayerNorm((256,), eps=1e-05, elementwise_affine=True)
        (norm_conv): LayerNorm((256,), eps=1e-05, elementwise_affine=True)
        (norm_final): LayerNorm((256,), eps=1e-05, elementwise_affine=True)
        (dropout): Dropout(p=0.1, inplace=False)
        (concat_linear): Identity()
      )
      (5): ConformerEncoderLayer(
        (self_attn): RelPositionMultiHeadedAttention(
          (linear_q): Linear(in_features=256, out_features=256, bias=True)
          (linear_k): Linear(in_features=256, out_features=256, bias=True)
          (linear_v): Linear(in_features=256, out_features=256, bias=True)
          (linear_out): Linear(in_features=256, out_features=256, bias=True)
          (dropout): Dropout(p=0.1, inplace=False)
          (linear_pos): Linear(in_features=256, out_features=256, bias=False)
        )
        (feed_forward): PositionwiseFeedForward(
          (w_1): Linear(in_features=256, out_features=2048, bias=True)
          (activation): SiLU()
          (dropout): Dropout(p=0.1, inplace=False)
          (w_2): Linear(in_features=2048, out_features=256, bias=True)
        )
        (feed_forward_macaron): PositionwiseFeedForward(
          (w_1): Linear(in_features=256, out_features=2048, bias=True)
          (activation): SiLU()
          (dropout): Dropout(p=0.1, inplace=False)
          (w_2): Linear(in_features=2048, out_features=256, bias=True)
        )
        (conv_module): ConvolutionModule(
          (pointwise_conv1): Conv1d(256, 512, kernel_size=(1,), stride=(1,))
          (depthwise_conv): Conv1d(256, 256, kernel_size=(15,), stride=(1,), padding=(7,), groups=256)
          (norm): BatchNorm1d(256, eps=1e-05, momentum=0.1, affine=True, track_running_stats=True)
          (pointwise_conv2): Conv1d(256, 256, kernel_size=(1,), stride=(1,))
          (activation): SiLU()
        )
        (norm_ff): LayerNorm((256,), eps=1e-05, elementwise_affine=True)
        (norm_mha): LayerNorm((256,), eps=1e-05, elementwise_affine=True)
        (norm_ff_macaron): LayerNorm((256,), eps=1e-05, elementwise_affine=True)
        (norm_conv): LayerNorm((256,), eps=1e-05, elementwise_affine=True)
        (norm_final): LayerNorm((256,), eps=1e-05, elementwise_affine=True)
        (dropout): Dropout(p=0.1, inplace=False)
        (concat_linear): Identity()
      )
      (6): ConformerEncoderLayer(
        (self_attn): RelPositionMultiHeadedAttention(
          (linear_q): Linear(in_features=256, out_features=256, bias=True)
          (linear_k): Linear(in_features=256, out_features=256, bias=True)
          (linear_v): Linear(in_features=256, out_features=256, bias=True)
          (linear_out): Linear(in_features=256, out_features=256, bias=True)
          (dropout): Dropout(p=0.1, inplace=False)
          (linear_pos): Linear(in_features=256, out_features=256, bias=False)
        )
        (feed_forward): PositionwiseFeedForward(
          (w_1): Linear(in_features=256, out_features=2048, bias=True)
          (activation): SiLU()
          (dropout): Dropout(p=0.1, inplace=False)
          (w_2): Linear(in_features=2048, out_features=256, bias=True)
        )
        (feed_forward_macaron): PositionwiseFeedForward(
          (w_1): Linear(in_features=256, out_features=2048, bias=True)
          (activation): SiLU()
          (dropout): Dropout(p=0.1, inplace=False)
          (w_2): Linear(in_features=2048, out_features=256, bias=True)
        )
        (conv_module): ConvolutionModule(
          (pointwise_conv1): Conv1d(256, 512, kernel_size=(1,), stride=(1,))
          (depthwise_conv): Conv1d(256, 256, kernel_size=(15,), stride=(1,), padding=(7,), groups=256)
          (norm): BatchNorm1d(256, eps=1e-05, momentum=0.1, affine=True, track_running_stats=True)
          (pointwise_conv2): Conv1d(256, 256, kernel_size=(1,), stride=(1,))
          (activation): SiLU()
        )
        (norm_ff): LayerNorm((256,), eps=1e-05, elementwise_affine=True)
        (norm_mha): LayerNorm((256,), eps=1e-05, elementwise_affine=True)
        (norm_ff_macaron): LayerNorm((256,), eps=1e-05, elementwise_affine=True)
        (norm_conv): LayerNorm((256,), eps=1e-05, elementwise_affine=True)
        (norm_final): LayerNorm((256,), eps=1e-05, elementwise_affine=True)
        (dropout): Dropout(p=0.1, inplace=False)
        (concat_linear): Identity()
      )
      (7): ConformerEncoderLayer(
        (self_attn): RelPositionMultiHeadedAttention(
          (linear_q): Linear(in_features=256, out_features=256, bias=True)
          (linear_k): Linear(in_features=256, out_features=256, bias=True)
          (linear_v): Linear(in_features=256, out_features=256, bias=True)
          (linear_out): Linear(in_features=256, out_features=256, bias=True)
          (dropout): Dropout(p=0.1, inplace=False)
          (linear_pos): Linear(in_features=256, out_features=256, bias=False)
        )
        (feed_forward): PositionwiseFeedForward(
          (w_1): Linear(in_features=256, out_features=2048, bias=True)
          (activation): SiLU()
          (dropout): Dropout(p=0.1, inplace=False)
          (w_2): Linear(in_features=2048, out_features=256, bias=True)
        )
        (feed_forward_macaron): PositionwiseFeedForward(
          (w_1): Linear(in_features=256, out_features=2048, bias=True)
          (activation): SiLU()
          (dropout): Dropout(p=0.1, inplace=False)
          (w_2): Linear(in_features=2048, out_features=256, bias=True)
        )
        (conv_module): ConvolutionModule(
          (pointwise_conv1): Conv1d(256, 512, kernel_size=(1,), stride=(1,))
          (depthwise_conv): Conv1d(256, 256, kernel_size=(15,), stride=(1,), padding=(7,), groups=256)
          (norm): BatchNorm1d(256, eps=1e-05, momentum=0.1, affine=True, track_running_stats=True)
          (pointwise_conv2): Conv1d(256, 256, kernel_size=(1,), stride=(1,))
          (activation): SiLU()
        )
        (norm_ff): LayerNorm((256,), eps=1e-05, elementwise_affine=True)
        (norm_mha): LayerNorm((256,), eps=1e-05, elementwise_affine=True)
        (norm_ff_macaron): LayerNorm((256,), eps=1e-05, elementwise_affine=True)
        (norm_conv): LayerNorm((256,), eps=1e-05, elementwise_affine=True)
        (norm_final): LayerNorm((256,), eps=1e-05, elementwise_affine=True)
        (dropout): Dropout(p=0.1, inplace=False)
        (concat_linear): Identity()
      )
      (8): ConformerEncoderLayer(
        (self_attn): RelPositionMultiHeadedAttention(
          (linear_q): Linear(in_features=256, out_features=256, bias=True)
          (linear_k): Linear(in_features=256, out_features=256, bias=True)
          (linear_v): Linear(in_features=256, out_features=256, bias=True)
          (linear_out): Linear(in_features=256, out_features=256, bias=True)
          (dropout): Dropout(p=0.1, inplace=False)
          (linear_pos): Linear(in_features=256, out_features=256, bias=False)
        )
        (feed_forward): PositionwiseFeedForward(
          (w_1): Linear(in_features=256, out_features=2048, bias=True)
          (activation): SiLU()
          (dropout): Dropout(p=0.1, inplace=False)
          (w_2): Linear(in_features=2048, out_features=256, bias=True)
        )
        (feed_forward_macaron): PositionwiseFeedForward(
          (w_1): Linear(in_features=256, out_features=2048, bias=True)
          (activation): SiLU()
          (dropout): Dropout(p=0.1, inplace=False)
          (w_2): Linear(in_features=2048, out_features=256, bias=True)
        )
        (conv_module): ConvolutionModule(
          (pointwise_conv1): Conv1d(256, 512, kernel_size=(1,), stride=(1,))
          (depthwise_conv): Conv1d(256, 256, kernel_size=(15,), stride=(1,), padding=(7,), groups=256)
          (norm): BatchNorm1d(256, eps=1e-05, momentum=0.1, affine=True, track_running_stats=True)
          (pointwise_conv2): Conv1d(256, 256, kernel_size=(1,), stride=(1,))
          (activation): SiLU()
        )
        (norm_ff): LayerNorm((256,), eps=1e-05, elementwise_affine=True)
        (norm_mha): LayerNorm((256,), eps=1e-05, elementwise_affine=True)
        (norm_ff_macaron): LayerNorm((256,), eps=1e-05, elementwise_affine=True)
        (norm_conv): LayerNorm((256,), eps=1e-05, elementwise_affine=True)
        (norm_final): LayerNorm((256,), eps=1e-05, elementwise_affine=True)
        (dropout): Dropout(p=0.1, inplace=False)
        (concat_linear): Identity()
      )
      (9): ConformerEncoderLayer(
        (self_attn): RelPositionMultiHeadedAttention(
          (linear_q): Linear(in_features=256, out_features=256, bias=True)
          (linear_k): Linear(in_features=256, out_features=256, bias=True)
          (linear_v): Linear(in_features=256, out_features=256, bias=True)
          (linear_out): Linear(in_features=256, out_features=256, bias=True)
          (dropout): Dropout(p=0.1, inplace=False)
          (linear_pos): Linear(in_features=256, out_features=256, bias=False)
        )
        (feed_forward): PositionwiseFeedForward(
          (w_1): Linear(in_features=256, out_features=2048, bias=True)
          (activation): SiLU()
          (dropout): Dropout(p=0.1, inplace=False)
          (w_2): Linear(in_features=2048, out_features=256, bias=True)
        )
        (feed_forward_macaron): PositionwiseFeedForward(
          (w_1): Linear(in_features=256, out_features=2048, bias=True)
          (activation): SiLU()
          (dropout): Dropout(p=0.1, inplace=False)
          (w_2): Linear(in_features=2048, out_features=256, bias=True)
        )
        (conv_module): ConvolutionModule(
          (pointwise_conv1): Conv1d(256, 512, kernel_size=(1,), stride=(1,))
          (depthwise_conv): Conv1d(256, 256, kernel_size=(15,), stride=(1,), padding=(7,), groups=256)
          (norm): BatchNorm1d(256, eps=1e-05, momentum=0.1, affine=True, track_running_stats=True)
          (pointwise_conv2): Conv1d(256, 256, kernel_size=(1,), stride=(1,))
          (activation): SiLU()
        )
        (norm_ff): LayerNorm((256,), eps=1e-05, elementwise_affine=True)
        (norm_mha): LayerNorm((256,), eps=1e-05, elementwise_affine=True)
        (norm_ff_macaron): LayerNorm((256,), eps=1e-05, elementwise_affine=True)
        (norm_conv): LayerNorm((256,), eps=1e-05, elementwise_affine=True)
        (norm_final): LayerNorm((256,), eps=1e-05, elementwise_affine=True)
        (dropout): Dropout(p=0.1, inplace=False)
        (concat_linear): Identity()
      )
      (10): ConformerEncoderLayer(
        (self_attn): RelPositionMultiHeadedAttention(
          (linear_q): Linear(in_features=256, out_features=256, bias=True)
          (linear_k): Linear(in_features=256, out_features=256, bias=True)
          (linear_v): Linear(in_features=256, out_features=256, bias=True)
          (linear_out): Linear(in_features=256, out_features=256, bias=True)
          (dropout): Dropout(p=0.1, inplace=False)
          (linear_pos): Linear(in_features=256, out_features=256, bias=False)
        )
        (feed_forward): PositionwiseFeedForward(
          (w_1): Linear(in_features=256, out_features=2048, bias=True)
          (activation): SiLU()
          (dropout): Dropout(p=0.1, inplace=False)
          (w_2): Linear(in_features=2048, out_features=256, bias=True)
        )
        (feed_forward_macaron): PositionwiseFeedForward(
          (w_1): Linear(in_features=256, out_features=2048, bias=True)
          (activation): SiLU()
          (dropout): Dropout(p=0.1, inplace=False)
          (w_2): Linear(in_features=2048, out_features=256, bias=True)
        )
        (conv_module): ConvolutionModule(
          (pointwise_conv1): Conv1d(256, 512, kernel_size=(1,), stride=(1,))
          (depthwise_conv): Conv1d(256, 256, kernel_size=(15,), stride=(1,), padding=(7,), groups=256)
          (norm): BatchNorm1d(256, eps=1e-05, momentum=0.1, affine=True, track_running_stats=True)
          (pointwise_conv2): Conv1d(256, 256, kernel_size=(1,), stride=(1,))
          (activation): SiLU()
        )
        (norm_ff): LayerNorm((256,), eps=1e-05, elementwise_affine=True)
        (norm_mha): LayerNorm((256,), eps=1e-05, elementwise_affine=True)
        (norm_ff_macaron): LayerNorm((256,), eps=1e-05, elementwise_affine=True)
        (norm_conv): LayerNorm((256,), eps=1e-05, elementwise_affine=True)
        (norm_final): LayerNorm((256,), eps=1e-05, elementwise_affine=True)
        (dropout): Dropout(p=0.1, inplace=False)
        (concat_linear): Identity()
      )
      (11): ConformerEncoderLayer(
        (self_attn): RelPositionMultiHeadedAttention(
          (linear_q): Linear(in_features=256, out_features=256, bias=True)
          (linear_k): Linear(in_features=256, out_features=256, bias=True)
          (linear_v): Linear(in_features=256, out_features=256, bias=True)
          (linear_out): Linear(in_features=256, out_features=256, bias=True)
          (dropout): Dropout(p=0.1, inplace=False)
          (linear_pos): Linear(in_features=256, out_features=256, bias=False)
        )
        (feed_forward): PositionwiseFeedForward(
          (w_1): Linear(in_features=256, out_features=2048, bias=True)
          (activation): SiLU()
          (dropout): Dropout(p=0.1, inplace=False)
          (w_2): Linear(in_features=2048, out_features=256, bias=True)
        )
        (feed_forward_macaron): PositionwiseFeedForward(
          (w_1): Linear(in_features=256, out_features=2048, bias=True)
          (activation): SiLU()
          (dropout): Dropout(p=0.1, inplace=False)
          (w_2): Linear(in_features=2048, out_features=256, bias=True)
        )
        (conv_module): ConvolutionModule(
          (pointwise_conv1): Conv1d(256, 512, kernel_size=(1,), stride=(1,))
          (depthwise_conv): Conv1d(256, 256, kernel_size=(15,), stride=(1,), padding=(7,), groups=256)
          (norm): BatchNorm1d(256, eps=1e-05, momentum=0.1, affine=True, track_running_stats=True)
          (pointwise_conv2): Conv1d(256, 256, kernel_size=(1,), stride=(1,))
          (activation): SiLU()
        )
        (norm_ff): LayerNorm((256,), eps=1e-05, elementwise_affine=True)
        (norm_mha): LayerNorm((256,), eps=1e-05, elementwise_affine=True)
        (norm_ff_macaron): LayerNorm((256,), eps=1e-05, elementwise_affine=True)
        (norm_conv): LayerNorm((256,), eps=1e-05, elementwise_affine=True)
        (norm_final): LayerNorm((256,), eps=1e-05, elementwise_affine=True)
        (dropout): Dropout(p=0.1, inplace=False)
        (concat_linear): Identity()
      )
    )
  )
  (decoder): BiTransformerDecoder(
    (left_decoder): TransformerDecoder(
      (embed): Sequential(
        (0): Embedding(5002, 256)
        (1): PositionalEncoding(
          (dropout): Dropout(p=0.1, inplace=False)
        )
      )
      (after_norm): LayerNorm((256,), eps=1e-05, elementwise_affine=True)
      (output_layer): Linear(in_features=256, out_features=5002, bias=True)
      (decoders): ModuleList(
        (0): DecoderLayer(
          (self_attn): MultiHeadedAttention(
            (linear_q): Linear(in_features=256, out_features=256, bias=True)
            (linear_k): Linear(in_features=256, out_features=256, bias=True)
            (linear_v): Linear(in_features=256, out_features=256, bias=True)
            (linear_out): Linear(in_features=256, out_features=256, bias=True)
            (dropout): Dropout(p=0.1, inplace=False)
          )
          (src_attn): MultiHeadedAttention(
            (linear_q): Linear(in_features=256, out_features=256, bias=True)
            (linear_k): Linear(in_features=256, out_features=256, bias=True)
            (linear_v): Linear(in_features=256, out_features=256, bias=True)
            (linear_out): Linear(in_features=256, out_features=256, bias=True)
            (dropout): Dropout(p=0.1, inplace=False)
          )
          (feed_forward): PositionwiseFeedForward(
            (w_1): Linear(in_features=256, out_features=2048, bias=True)
            (activation): ReLU()
            (dropout): Dropout(p=0.1, inplace=False)
            (w_2): Linear(in_features=2048, out_features=256, bias=True)
          )
          (norm1): LayerNorm((256,), eps=1e-05, elementwise_affine=True)
          (norm2): LayerNorm((256,), eps=1e-05, elementwise_affine=True)
          (norm3): LayerNorm((256,), eps=1e-05, elementwise_affine=True)
          (dropout): Dropout(p=0.1, inplace=False)
          (concat_linear1): Identity()
          (concat_linear2): Identity()
        )
        (1): DecoderLayer(
          (self_attn): MultiHeadedAttention(
            (linear_q): Linear(in_features=256, out_features=256, bias=True)
            (linear_k): Linear(in_features=256, out_features=256, bias=True)
            (linear_v): Linear(in_features=256, out_features=256, bias=True)
            (linear_out): Linear(in_features=256, out_features=256, bias=True)
            (dropout): Dropout(p=0.1, inplace=False)
          )
          (src_attn): MultiHeadedAttention(
            (linear_q): Linear(in_features=256, out_features=256, bias=True)
            (linear_k): Linear(in_features=256, out_features=256, bias=True)
            (linear_v): Linear(in_features=256, out_features=256, bias=True)
            (linear_out): Linear(in_features=256, out_features=256, bias=True)
            (dropout): Dropout(p=0.1, inplace=False)
          )
          (feed_forward): PositionwiseFeedForward(
            (w_1): Linear(in_features=256, out_features=2048, bias=True)
            (activation): ReLU()
            (dropout): Dropout(p=0.1, inplace=False)
            (w_2): Linear(in_features=2048, out_features=256, bias=True)
          )
          (norm1): LayerNorm((256,), eps=1e-05, elementwise_affine=True)
          (norm2): LayerNorm((256,), eps=1e-05, elementwise_affine=True)
          (norm3): LayerNorm((256,), eps=1e-05, elementwise_affine=True)
          (dropout): Dropout(p=0.1, inplace=False)
          (concat_linear1): Identity()
          (concat_linear2): Identity()
        )
        (2): DecoderLayer(
          (self_attn): MultiHeadedAttention(
            (linear_q): Linear(in_features=256, out_features=256, bias=True)
            (linear_k): Linear(in_features=256, out_features=256, bias=True)
            (linear_v): Linear(in_features=256, out_features=256, bias=True)
            (linear_out): Linear(in_features=256, out_features=256, bias=True)
            (dropout): Dropout(p=0.1, inplace=False)
          )
          (src_attn): MultiHeadedAttention(
            (linear_q): Linear(in_features=256, out_features=256, bias=True)
            (linear_k): Linear(in_features=256, out_features=256, bias=True)
            (linear_v): Linear(in_features=256, out_features=256, bias=True)
            (linear_out): Linear(in_features=256, out_features=256, bias=True)
            (dropout): Dropout(p=0.1, inplace=False)
          )
          (feed_forward): PositionwiseFeedForward(
            (w_1): Linear(in_features=256, out_features=2048, bias=True)
            (activation): ReLU()
            (dropout): Dropout(p=0.1, inplace=False)
            (w_2): Linear(in_features=2048, out_features=256, bias=True)
          )
          (norm1): LayerNorm((256,), eps=1e-05, elementwise_affine=True)
          (norm2): LayerNorm((256,), eps=1e-05, elementwise_affine=True)
          (norm3): LayerNorm((256,), eps=1e-05, elementwise_affine=True)
          (dropout): Dropout(p=0.1, inplace=False)
          (concat_linear1): Identity()
          (concat_linear2): Identity()
        )
      )
    )
    (right_decoder): TransformerDecoder(
      (embed): Sequential(
        (0): Embedding(5002, 256)
        (1): PositionalEncoding(
          (dropout): Dropout(p=0.1, inplace=False)
        )
      )
      (after_norm): LayerNorm((256,), eps=1e-05, elementwise_affine=True)
      (output_layer): Linear(in_features=256, out_features=5002, bias=True)
      (decoders): ModuleList(
        (0): DecoderLayer(
          (self_attn): MultiHeadedAttention(
            (linear_q): Linear(in_features=256, out_features=256, bias=True)
            (linear_k): Linear(in_features=256, out_features=256, bias=True)
            (linear_v): Linear(in_features=256, out_features=256, bias=True)
            (linear_out): Linear(in_features=256, out_features=256, bias=True)
            (dropout): Dropout(p=0.1, inplace=False)
          )
          (src_attn): MultiHeadedAttention(
            (linear_q): Linear(in_features=256, out_features=256, bias=True)
            (linear_k): Linear(in_features=256, out_features=256, bias=True)
            (linear_v): Linear(in_features=256, out_features=256, bias=True)
            (linear_out): Linear(in_features=256, out_features=256, bias=True)
            (dropout): Dropout(p=0.1, inplace=False)
          )
          (feed_forward): PositionwiseFeedForward(
            (w_1): Linear(in_features=256, out_features=2048, bias=True)
            (activation): ReLU()
            (dropout): Dropout(p=0.1, inplace=False)
            (w_2): Linear(in_features=2048, out_features=256, bias=True)
          )
          (norm1): LayerNorm((256,), eps=1e-05, elementwise_affine=True)
          (norm2): LayerNorm((256,), eps=1e-05, elementwise_affine=True)
          (norm3): LayerNorm((256,), eps=1e-05, elementwise_affine=True)
          (dropout): Dropout(p=0.1, inplace=False)
          (concat_linear1): Identity()
          (concat_linear2): Identity()
        )
        (1): DecoderLayer(
          (self_attn): MultiHeadedAttention(
            (linear_q): Linear(in_features=256, out_features=256, bias=True)
            (linear_k): Linear(in_features=256, out_features=256, bias=True)
            (linear_v): Linear(in_features=256, out_features=256, bias=True)
            (linear_out): Linear(in_features=256, out_features=256, bias=True)
            (dropout): Dropout(p=0.1, inplace=False)
          )
          (src_attn): MultiHeadedAttention(
            (linear_q): Linear(in_features=256, out_features=256, bias=True)
            (linear_k): Linear(in_features=256, out_features=256, bias=True)
            (linear_v): Linear(in_features=256, out_features=256, bias=True)
            (linear_out): Linear(in_features=256, out_features=256, bias=True)
            (dropout): Dropout(p=0.1, inplace=False)
          )
          (feed_forward): PositionwiseFeedForward(
            (w_1): Linear(in_features=256, out_features=2048, bias=True)
            (activation): ReLU()
            (dropout): Dropout(p=0.1, inplace=False)
            (w_2): Linear(in_features=2048, out_features=256, bias=True)
          )
          (norm1): LayerNorm((256,), eps=1e-05, elementwise_affine=True)
          (norm2): LayerNorm((256,), eps=1e-05, elementwise_affine=True)
          (norm3): LayerNorm((256,), eps=1e-05, elementwise_affine=True)
          (dropout): Dropout(p=0.1, inplace=False)
          (concat_linear1): Identity()
          (concat_linear2): Identity()
        )
        (2): DecoderLayer(
          (self_attn): MultiHeadedAttention(
            (linear_q): Linear(in_features=256, out_features=256, bias=True)
            (linear_k): Linear(in_features=256, out_features=256, bias=True)
            (linear_v): Linear(in_features=256, out_features=256, bias=True)
            (linear_out): Linear(in_features=256, out_features=256, bias=True)
            (dropout): Dropout(p=0.1, inplace=False)
          )
          (src_attn): MultiHeadedAttention(
            (linear_q): Linear(in_features=256, out_features=256, bias=True)
            (linear_k): Linear(in_features=256, out_features=256, bias=True)
            (linear_v): Linear(in_features=256, out_features=256, bias=True)
            (linear_out): Linear(in_features=256, out_features=256, bias=True)
            (dropout): Dropout(p=0.1, inplace=False)
          )
          (feed_forward): PositionwiseFeedForward(
            (w_1): Linear(in_features=256, out_features=2048, bias=True)
            (activation): ReLU()
            (dropout): Dropout(p=0.1, inplace=False)
            (w_2): Linear(in_features=2048, out_features=256, bias=True)
          )
          (norm1): LayerNorm((256,), eps=1e-05, elementwise_affine=True)
          (norm2): LayerNorm((256,), eps=1e-05, elementwise_affine=True)
          (norm3): LayerNorm((256,), eps=1e-05, elementwise_affine=True)
          (dropout): Dropout(p=0.1, inplace=False)
          (concat_linear1): Identity()
          (concat_linear2): Identity()
        )
      )
    )
  )
  (ctc): CTC(
    (ctc_lo): Linear(in_features=256, out_features=5002, bias=True)
…
          (norm3): LayerNorm((256,), eps=1e-05, elementwise_affine=True)
          (dropout): Dropout(p=0.1, inplace=False)
          (concat_linear1): Identity()
          (concat_linear2): Identity()
        )
        (1): DecoderLayer(
          (self_attn): MultiHeadedAttention(
            (linear_q): Linear(in_features=256, out_features=256, bias=True)
            (linear_k): Linear(in_features=256, out_features=256, bias=True)
            (linear_v): Linear(in_features=256, out_features=256, bias=True)
            (linear_out): Linear(in_features=256, out_features=256, bias=True)
            (dropout): Dropout(p=0.1, inplace=False)
          )
          (src_attn): MultiHeadedAttention(
            (linear_q): Linear(in_features=256, out_features=256, bias=True)
            (linear_k): Linear(in_features=256, out_features=256, bias=True)
            (linear_v): Linear(in_features=256, out_features=256, bias=True)
            (linear_out): Linear(in_features=256, out_features=256, bias=True)
            (dropout): Dropout(p=0.1, inplace=False)
          )
          (feed_forward): PositionwiseFeedForward(
            (w_1): Linear(in_features=256, out_features=2048, bias=True)
            (activation): ReLU()
            (dropout): Dropout(p=0.1, inplace=False)
            (w_2): Linear(in_features=2048, out_features=256, bias=True)
          )
          (norm1): LayerNorm((256,), eps=1e-05, elementwise_affine=True)
          (norm2): LayerNorm((256,), eps=1e-05, elementwise_affine=True)
          (norm3): LayerNorm((256,), eps=1e-05, elementwise_affine=True)
          (dropout): Dropout(p=0.1, inplace=False)
          (concat_linear1): Identity()
          (concat_linear2): Identity()
        )
        (2): DecoderLayer(
          (self_attn): MultiHeadedAttention(
            (linear_q): Linear(in_features=256, out_features=256, bias=True)
            (linear_k): Linear(in_features=256, out_features=256, bias=True)
            (linear_v): Linear(in_features=256, out_features=256, bias=True)
            (linear_out): Linear(in_features=256, out_features=256, bias=True)
            (dropout): Dropout(p=0.1, inplace=False)
          )
          (src_attn): MultiHeadedAttention(
            (linear_q): Linear(in_features=256, out_features=256, bias=True)
            (linear_k): Linear(in_features=256, out_features=256, bias=True)
            (linear_v): Linear(in_features=256, out_features=256, bias=True)
            (linear_out): Linear(in_features=256, out_features=256, bias=True)
            (dropout): Dropout(p=0.1, inplace=False)
          )
          (feed_forward): PositionwiseFeedForward(
            (w_1): Linear(in_features=256, out_features=2048, bias=True)
            (activation): ReLU()
            (dropout): Dropout(p=0.1, inplace=False)
            (w_2): Linear(in_features=2048, out_features=256, bias=True)
          )
          (norm1): LayerNorm((256,), eps=1e-05, elementwise_affine=True)
          (norm2): LayerNorm((256,), eps=1e-05, elementwise_affine=True)
          (norm3): LayerNorm((256,), eps=1e-05, elementwise_affine=True)
          (dropout): Dropout(p=0.1, inplace=False)
          (concat_linear1): Identity()
          (concat_linear2): Identity()
        )
      )
    )
    (right_decoder): TransformerDecoder(
      (embed): Sequential(
        (0): Embedding(5002, 256)
        (1): PositionalEncoding(
          (dropout): Dropout(p=0.1, inplace=False)
        )
      )
      (after_norm): LayerNorm((256,), eps=1e-05, elementwise_affine=True)
      (output_layer): Linear(in_features=256, out_features=5002, bias=True)
      (decoders): ModuleList(
        (0): DecoderLayer(
          (self_attn): MultiHeadedAttention(
            (linear_q): Linear(in_features=256, out_features=256, bias=True)
            (linear_k): Linear(in_features=256, out_features=256, bias=True)
            (linear_v): Linear(in_features=256, out_features=256, bias=True)
            (linear_out): Linear(in_features=256, out_features=256, bias=True)
            (dropout): Dropout(p=0.1, inplace=False)
          )
          (src_attn): MultiHeadedAttention(
            (linear_q): Linear(in_features=256, out_features=256, bias=True)
            (linear_k): Linear(in_features=256, out_features=256, bias=True)
            (linear_v): Linear(in_features=256, out_features=256, bias=True)
            (linear_out): Linear(in_features=256, out_features=256, bias=True)
            (dropout): Dropout(p=0.1, inplace=False)
          )
          (feed_forward): PositionwiseFeedForward(
            (w_1): Linear(in_features=256, out_features=2048, bias=True)
            (activation): ReLU()
            (dropout): Dropout(p=0.1, inplace=False)
            (w_2): Linear(in_features=2048, out_features=256, bias=True)
          )
          (norm1): LayerNorm((256,), eps=1e-05, elementwise_affine=True)
          (norm2): LayerNorm((256,), eps=1e-05, elementwise_affine=True)
          (norm3): LayerNorm((256,), eps=1e-05, elementwise_affine=True)
          (dropout): Dropout(p=0.1, inplace=False)
          (concat_linear1): Identity()
          (concat_linear2): Identity()
        )
        (1): DecoderLayer(
          (self_attn): MultiHeadedAttention(
            (linear_q): Linear(in_features=256, out_features=256, bias=True)
            (linear_k): Linear(in_features=256, out_features=256, bias=True)
            (linear_v): Linear(in_features=256, out_features=256, bias=True)
            (linear_out): Linear(in_features=256, out_features=256, bias=True)
            (dropout): Dropout(p=0.1, inplace=False)
          )
          (src_attn): MultiHeadedAttention(
            (linear_q): Linear(in_features=256, out_features=256, bias=True)
            (linear_k): Linear(in_features=256, out_features=256, bias=True)
            (linear_v): Linear(in_features=256, out_features=256, bias=True)
            (linear_out): Linear(in_features=256, out_features=256, bias=True)
            (dropout): Dropout(p=0.1, inplace=False)
          )
          (feed_forward): PositionwiseFeedForward(
            (w_1): Linear(in_features=256, out_features=2048, bias=True)
            (activation): ReLU()
            (dropout): Dropout(p=0.1, inplace=False)
            (w_2): Linear(in_features=2048, out_features=256, bias=True)
          )
          (norm1): LayerNorm((256,), eps=1e-05, elementwise_affine=True)
          (norm2): LayerNorm((256,), eps=1e-05, elementwise_affine=True)
          (norm3): LayerNorm((256,), eps=1e-05, elementwise_affine=True)
          (dropout): Dropout(p=0.1, inplace=False)
          (concat_linear1): Identity()
          (concat_linear2): Identity()
        )
        (2): DecoderLayer(
          (self_attn): MultiHeadedAttention(
            (linear_q): Linear(in_features=256, out_features=256, bias=True)
            (linear_k): Linear(in_features=256, out_features=256, bias=True)
            (linear_v): Linear(in_features=256, out_features=256, bias=True)
            (linear_out): Linear(in_features=256, out_features=256, bias=True)
            (dropout): Dropout(p=0.1, inplace=False)
          )
          (src_attn): MultiHeadedAttention(
            (linear_q): Linear(in_features=256, out_features=256, bias=True)
            (linear_k): Linear(in_features=256, out_features=256, bias=True)
            (linear_v): Linear(in_features=256, out_features=256, bias=True)
            (linear_out): Linear(in_features=256, out_features=256, bias=True)
            (dropout): Dropout(p=0.1, inplace=False)
          )
          (feed_forward): PositionwiseFeedForward(
            (w_1): Linear(in_features=256, out_features=2048, bias=True)
            (activation): ReLU()
            (dropout): Dropout(p=0.1, inplace=False)
            (w_2): Linear(in_features=2048, out_features=256, bias=True)
          )
          (norm1): LayerNorm((256,), eps=1e-05, elementwise_affine=True)
          (norm2): LayerNorm((256,), eps=1e-05, elementwise_affine=True)
          (norm3): LayerNorm((256,), eps=1e-05, elementwise_affine=True)
          (dropout): Dropout(p=0.1, inplace=False)
          (concat_linear1): Identity()
          (concat_linear2): Identity()
        )
      )
    )
  )
  (ctc): CTC(
    (ctc_lo): Linear(in_features=256, out_features=5002, bias=True)
    (ctc_loss): CTCLoss()
  )
  (context_bias): ContextBias(
    (context_extractor): BLSTM(
      (word_embedding): Embedding(5002, 256)
      (sen_rnn): LSTM(256, 256, batch_first=True, bidirectional=True)
    )
    (context_encoder): Sequential(
      (0): Linear(in_features=1024, out_features=256, bias=True)
      (1): LayerNorm((256,), eps=1e-05, elementwise_affine=True)
    )
    (encoder_bias): MultiHeadedAttention(
      (linear_q): Linear(in_features=256, out_features=256, bias=True)
      (linear_k): Linear(in_features=256, out_features=256, bias=True)
      (linear_v): Linear(in_features=256, out_features=256, bias=True)
      (linear_out): Linear(in_features=256, out_features=256, bias=True)
      (dropout): Dropout(p=0.0, inplace=False)
    )
    (predictor_bias): MultiHeadedAttention(
      (linear_q): Linear(in_features=256, out_features=256, bias=True)
      (linear_k): Linear(in_features=256, out_features=256, bias=True)
      (linear_v): Linear(in_features=256, out_features=256, bias=True)
      (linear_out): Linear(in_features=256, out_features=256, bias=True)
      (dropout): Dropout(p=0.0, inplace=False)
    )
    (hw_bias): MultiHeadedAttention(
      (linear_q): Linear(in_features=100, out_features=100, bias=True)
      (linear_k): Linear(in_features=100, out_features=100, bias=True)
      (linear_v): Linear(in_features=100, out_features=100, bias=True)
      (linear_out): Linear(in_features=100, out_features=100, bias=True)
      (dropout): Dropout(p=0.0, inplace=False)
    )
    (encoder_norm): LayerNorm((256,), eps=1e-05, elementwise_affine=True)
    (encoder_bias_norm): LayerNorm((256,), eps=1e-05, elementwise_affine=True)
    (encoder_ffn): Linear(in_features=512, out_features=256, bias=True)
    (encoder_bias_combine): Linear(in_features=512, out_features=256, bias=True)
    (encdoer_bias_bias_norm): LayerNorm((256,), eps=1e-05, elementwise_affine=True)
    (encdoer_bias_out_norm): LayerNorm((256,), eps=1e-05, elementwise_affine=True)
    (predictor_bias_combine): Linear(in_features=512, out_features=256, bias=True)
    (predictor_bias_bias_norm): LayerNorm((256,), eps=1e-05, elementwise_affine=True)
    (predictor_bias_out_norm): LayerNorm((256,), eps=1e-05, elementwise_affine=True)
    (hw_bias_norm): LayerNorm((100,), eps=1e-05, elementwise_affine=True)
    (hw_output_layer): Linear(in_features=100, out_features=2, bias=True)
    (hw_output_layer_enc): Linear(in_features=256, out_features=100, bias=True)
    (hw_output_layer_dec): Linear(in_features=256, out_features=100, bias=True)
  )
  (predictor): RNNPredictor(
    (embed): Embedding(5002, 256)
    (dropout): Dropout(p=0.1, inplace=False)
    (rnn): LSTM(256, 256, num_layers=2, batch_first=True, dropout=0.1)
    (projection): Linear(in_features=256, out_features=256, bias=True)
  )
  (joint): TransducerJoint(
    (activatoin): Tanh()
    (enc_ffn): Linear(in_features=256, out_features=512, bias=True)
    (pred_ffn): Linear(in_features=256, out_features=512, bias=True)
    (ffn_out): Linear(in_features=512, out_features=5002, bias=True)
  )
  (hw_criterion): CrossEntropyLoss()
  (criterion_att): LabelSmoothingLoss(
    (criterion): KLDivLoss()
  )
)
the number of model params: 58195794
2023-02-25 14:52:11,508 INFO Epoch 11 TRAIN info lr 4e-08
2023-02-25 14:52:11,511 INFO using accumulate grad, new batch size is 4 times larger than before
Transducer(
  (encoder): ConformerEncoder(
    (global_cmvn): GlobalCMVN()
    (embed): Conv2dSubsampling4(
      (conv): Sequential(
        (0): Conv2d(1, 256, kernel_size=(3, 3), stride=(2, 2))
        (1): ReLU()
        (2): Conv2d(256, 256, kernel_size=(3, 3), stride=(2, 2))
        (3): ReLU()
      )
      (out): Sequential(
        (0): Linear(in_features=4864, out_features=256, bias=True)
      )
      (pos_enc): RelPositionalEncoding(
        (dropout): Dropout(p=0.1, inplace=False)
      )
    )
    (after_norm): LayerNorm((256,), eps=1e-05, elementwise_affine=True)
    (encoders): ModuleList(
      (0): ConformerEncoderLayer(
        (self_attn): RelPositionMultiHeadedAttention(
          (linear_q): Linear(in_features=256, out_features=256, bias=True)
          (linear_k): Linear(in_features=256, out_features=256, bias=True)
          (linear_v): Linear(in_features=256, out_features=256, bias=True)
          (linear_out): Linear(in_features=256, out_features=256, bias=True)
          (dropout): Dropout(p=0.1, inplace=False)
          (linear_pos): Linear(in_features=256, out_features=256, bias=False)
        )
        (feed_forward): PositionwiseFeedForward(
          (w_1): Linear(in_features=256, out_features=2048, bias=True)
          (activation): SiLU()
          (dropout): Dropout(p=0.1, inplace=False)
          (w_2): Linear(in_features=2048, out_features=256, bias=True)
        )
        (feed_forward_macaron): PositionwiseFeedForward(
          (w_1): Linear(in_features=256, out_features=2048, bias=True)
          (activation): SiLU()
          (dropout): Dropout(p=0.1, inplace=False)
          (w_2): Linear(in_features=2048, out_features=256, bias=True)
        )
        (conv_module): ConvolutionModule(
          (pointwise_conv1): Conv1d(256, 512, kernel_size=(1,), stride=(1,))
          (depthwise_conv): Conv1d(256, 256, kernel_size=(15,), stride=(1,), padding=(7,), groups=256)
          (norm): BatchNorm1d(256, eps=1e-05, momentum=0.1, affine=True, track_running_stats=True)
          (pointwise_conv2): Conv1d(256, 256, kernel_size=(1,), stride=(1,))
          (activation): SiLU()
        )
        (norm_ff): LayerNorm((256,), eps=1e-05, elementwise_affine=True)
        (norm_mha): LayerNorm((256,), eps=1e-05, elementwise_affine=True)
        (norm_ff_macaron): LayerNorm((256,), eps=1e-05, elementwise_affine=True)
        (norm_conv): LayerNorm((256,), eps=1e-05, elementwise_affine=True)
        (norm_final): LayerNorm((256,), eps=1e-05, elementwise_affine=True)
        (dropout): Dropout(p=0.1, inplace=False)
        (concat_linear): Identity()
      )
      (1): ConformerEncoderLayer(
        (self_attn): RelPositionMultiHeadedAttention(
          (linear_q): Linear(in_features=256, out_features=256, bias=True)
          (linear_k): Linear(in_features=256, out_features=256, bias=True)
          (linear_v): Linear(in_features=256, out_features=256, bias=True)
          (linear_out): Linear(in_features=256, out_features=256, bias=True)
          (dropout): Dropout(p=0.1, inplace=False)
          (linear_pos): Linear(in_features=256, out_features=256, bias=False)
        )
        (feed_forward): PositionwiseFeedForward(
          (w_1): Linear(in_features=256, out_features=2048, bias=True)
          (activation): SiLU()
          (dropout): Dropout(p=0.1, inplace=False)
          (w_2): Linear(in_features=2048, out_features=256, bias=True)
        )
        (feed_forward_macaron): PositionwiseFeedForward(
          (w_1): Linear(in_features=256, out_features=2048, bias=True)
          (activation): SiLU()
          (dropout): Dropout(p=0.1, inplace=False)
          (w_2): Linear(in_features=2048, out_features=256, bias=True)
        )
        (conv_module): ConvolutionModule(
          (pointwise_conv1): Conv1d(256, 512, kernel_size=(1,), stride=(1,))
          (depthwise_conv): Conv1d(256, 256, kernel_size=(15,), stride=(1,), padding=(7,), groups=256)
          (norm): BatchNorm1d(256, eps=1e-05, momentum=0.1, affine=True, track_running_stats=True)
          (pointwise_conv2): Conv1d(256, 256, kernel_size=(1,), stride=(1,))
          (activation): SiLU()
        )
        (norm_ff): LayerNorm((256,), eps=1e-05, elementwise_affine=True)
        (norm_mha): LayerNorm((256,), eps=1e-05, elementwise_affine=True)
        (norm_ff_macaron): LayerNorm((256,), eps=1e-05, elementwise_affine=True)
        (norm_conv): LayerNorm((256,), eps=1e-05, elementwise_affine=True)
        (norm_final): LayerNorm((256,), eps=1e-05, elementwise_affine=True)
        (dropout): Dropout(p=0.1, inplace=False)
        (concat_linear): Identity()
      )
      (2): ConformerEncoderLayer(
        (self_attn): RelPositionMultiHeadedAttention(
          (linear_q): Linear(in_features=256, out_features=256, bias=True)
          (linear_k): Linear(in_features=256, out_features=256, bias=True)
          (linear_v): Linear(in_features=256, out_features=256, bias=True)
          (linear_out): Linear(in_features=256, out_features=256, bias=True)
          (dropout): Dropout(p=0.1, inplace=False)
          (linear_pos): Linear(in_features=256, out_features=256, bias=False)
        )
        (feed_forward): PositionwiseFeedForward(
          (w_1): Linear(in_features=256, out_features=2048, bias=True)
          (activation): SiLU()
          (dropout): Dropout(p=0.1, inplace=False)
          (w_2): Linear(in_features=2048, out_features=256, bias=True)
        )
        (feed_forward_macaron): PositionwiseFeedForward(
          (w_1): Linear(in_features=256, out_features=2048, bias=True)
          (activation): SiLU()
          (dropout): Dropout(p=0.1, inplace=False)
          (w_2): Linear(in_features=2048, out_features=256, bias=True)
        )
        (conv_module): ConvolutionModule(
          (pointwise_conv1): Conv1d(256, 512, kernel_size=(1,), stride=(1,))
          (depthwise_conv): Conv1d(256, 256, kernel_size=(15,), stride=(1,), padding=(7,), groups=256)
          (norm): BatchNorm1d(256, eps=1e-05, momentum=0.1, affine=True, track_running_stats=True)
          (pointwise_conv2): Conv1d(256, 256, kernel_size=(1,), stride=(1,))
          (activation): SiLU()
        )
        (norm_ff): LayerNorm((256,), eps=1e-05, elementwise_affine=True)
        (norm_mha): LayerNorm((256,), eps=1e-05, elementwise_affine=True)
        (norm_ff_macaron): LayerNorm((256,), eps=1e-05, elementwise_affine=True)
        (norm_conv): LayerNorm((256,), eps=1e-05, elementwise_affine=True)
        (norm_final): LayerNorm((256,), eps=1e-05, elementwise_affine=True)
        (dropout): Dropout(p=0.1, inplace=False)
        (concat_linear): Identity()
      )
      (3): ConformerEncoderLayer(
        (self_attn): RelPositionMultiHeadedAttention(
          (linear_q): Linear(in_features=256, out_features=256, bias=True)
          (linear_k): Linear(in_features=256, out_features=256, bias=True)
          (linear_v): Linear(in_features=256, out_features=256, bias=True)
          (linear_out): Linear(in_features=256, out_features=256, bias=True)
          (dropout): Dropout(p=0.1, inplace=False)
          (linear_pos): Linear(in_features=256, out_features=256, bias=False)
        )
        (feed_forward): PositionwiseFeedForward(
          (w_1): Linear(in_features=256, out_features=2048, bias=True)
          (activation): SiLU()
          (dropout): Dropout(p=0.1, inplace=False)
          (w_2): Linear(in_features=2048, out_features=256, bias=True)
        )
        (feed_forward_macaron): PositionwiseFeedForward(
          (w_1): Linear(in_features=256, out_features=2048, bias=True)
          (activation): SiLU()
          (dropout): Dropout(p=0.1, inplace=False)
          (w_2): Linear(in_features=2048, out_features=256, bias=True)
        )
        (conv_module): ConvolutionModule(
          (pointwise_conv1): Conv1d(256, 512, kernel_size=(1,), stride=(1,))
          (depthwise_conv): Conv1d(256, 256, kernel_size=(15,), stride=(1,), padding=(7,), groups=256)
          (norm): BatchNorm1d(256, eps=1e-05, momentum=0.1, affine=True, track_running_stats=True)
          (pointwise_conv2): Conv1d(256, 256, kernel_size=(1,), stride=(1,))
          (activation): SiLU()
        )
        (norm_ff): LayerNorm((256,), eps=1e-05, elementwise_affine=True)
        (norm_mha): LayerNorm((256,), eps=1e-05, elementwise_affine=True)
        (norm_ff_macaron): LayerNorm((256,), eps=1e-05, elementwise_affine=True)
        (norm_conv): LayerNorm((256,), eps=1e-05, elementwise_affine=True)
        (norm_final): LayerNorm((256,), eps=1e-05, elementwise_affine=True)
        (dropout): Dropout(p=0.1, inplace=False)
        (concat_linear): Identity()
      )
      (4): ConformerEncoderLayer(
        (self_attn): RelPositionMultiHeadedAttention(
          (linear_q): Linear(in_features=256, out_features=256, bias=True)
          (linear_k): Linear(in_features=256, out_features=256, bias=True)
          (linear_v): Linear(in_features=256, out_features=256, bias=True)
          (linear_out): Linear(in_features=256, out_features=256, bias=True)
          (dropout): Dropout(p=0.1, inplace=False)
          (linear_pos): Linear(in_features=256, out_features=256, bias=False)
        )
        (feed_forward): PositionwiseFeedForward(
          (w_1): Linear(in_features=256, out_features=2048, bias=True)
          (activation): SiLU()
          (dropout): Dropout(p=0.1, inplace=False)
          (w_2): Linear(in_features=2048, out_features=256, bias=True)
        )
        (feed_forward_macaron): PositionwiseFeedForward(
          (w_1): Linear(in_features=256, out_features=2048, bias=True)
          (activation): SiLU()
          (dropout): Dropout(p=0.1, inplace=False)
          (w_2): Linear(in_features=2048, out_features=256, bias=True)
        )
        (conv_module): ConvolutionModule(
          (pointwise_conv1): Conv1d(256, 512, kernel_size=(1,), stride=(1,))
          (depthwise_conv): Conv1d(256, 256, kernel_size=(15,), stride=(1,), padding=(7,), groups=256)
          (norm): BatchNorm1d(256, eps=1e-05, momentum=0.1, affine=True, track_running_stats=True)
          (pointwise_conv2): Conv1d(256, 256, kernel_size=(1,), stride=(1,))
          (activation): SiLU()
        )
        (norm_ff): LayerNorm((256,), eps=1e-05, elementwise_affine=True)
        (norm_mha): LayerNorm((256,), eps=1e-05, elementwise_affine=True)
        (norm_ff_macaron): LayerNorm((256,), eps=1e-05, elementwise_affine=True)
        (norm_conv): LayerNorm((256,), eps=1e-05, elementwise_affine=True)
        (norm_final): LayerNorm((256,), eps=1e-05, elementwise_affine=True)
        (dropout): Dropout(p=0.1, inplace=False)
        (concat_linear): Identity()
      )
      (5): ConformerEncoderLayer(
        (self_attn): RelPositionMultiHeadedAttention(
          (linear_q): Linear(in_features=256, out_features=256, bias=True)
          (linear_k): Linear(in_features=256, out_features=256, bias=True)
          (linear_v): Linear(in_features=256, out_features=256, bias=True)
          (linear_out): Linear(in_features=256, out_features=256, bias=True)
          (dropout): Dropout(p=0.1, inplace=False)
          (linear_pos): Linear(in_features=256, out_features=256, bias=False)
        )
        (feed_forward): PositionwiseFeedForward(
          (w_1): Linear(in_features=256, out_features=2048, bias=True)
          (activation): SiLU()
          (dropout): Dropout(p=0.1, inplace=False)
          (w_2): Linear(in_features=2048, out_features=256, bias=True)
        )
        (feed_forward_macaron): PositionwiseFeedForward(
          (w_1): Linear(in_features=256, out_features=2048, bias=True)
          (activation): SiLU()
          (dropout): Dropout(p=0.1, inplace=False)
          (w_2): Linear(in_features=2048, out_features=256, bias=True)
        )
        (conv_module): ConvolutionModule(
          (pointwise_conv1): Conv1d(256, 512, kernel_size=(1,), stride=(1,))
          (depthwise_conv): Conv1d(256, 256, kernel_size=(15,), stride=(1,), padding=(7,), groups=256)
          (norm): BatchNorm1d(256, eps=1e-05, momentum=0.1, affine=True, track_running_stats=True)
          (pointwise_conv2): Conv1d(256, 256, kernel_size=(1,), stride=(1,))
          (activation): SiLU()
        )
        (norm_ff): LayerNorm((256,), eps=1e-05, elementwise_affine=True)
        (norm_mha): LayerNorm((256,), eps=1e-05, elementwise_affine=True)
        (norm_ff_macaron): LayerNorm((256,), eps=1e-05, elementwise_affine=True)
        (norm_conv): LayerNorm((256,), eps=1e-05, elementwise_affine=True)
        (norm_final): LayerNorm((256,), eps=1e-05, elementwise_affine=True)
        (dropout): Dropout(p=0.1, inplace=False)
        (concat_linear): Identity()
      )
      (6): ConformerEncoderLayer(
        (self_attn): RelPositionMultiHeadedAttention(
          (linear_q): Linear(in_features=256, out_features=256, bias=True)
          (linear_k): Linear(in_features=256, out_features=256, bias=True)
          (linear_v): Linear(in_features=256, out_features=256, bias=True)
          (linear_out): Linear(in_features=256, out_features=256, bias=True)
          (dropout): Dropout(p=0.1, inplace=False)
          (linear_pos): Linear(in_features=256, out_features=256, bias=False)
        )
        (feed_forward): PositionwiseFeedForward(
          (w_1): Linear(in_features=256, out_features=2048, bias=True)
          (activation): SiLU()
          (dropout): Dropout(p=0.1, inplace=False)
          (w_2): Linear(in_features=2048, out_features=256, bias=True)
        )
        (feed_forward_macaron): PositionwiseFeedForward(
          (w_1): Linear(in_features=256, out_features=2048, bias=True)
          (activation): SiLU()
          (dropout): Dropout(p=0.1, inplace=False)
          (w_2): Linear(in_features=2048, out_features=256, bias=True)
        )
        (conv_module): ConvolutionModule(
          (pointwise_conv1): Conv1d(256, 512, kernel_size=(1,), stride=(1,))
          (depthwise_conv): Conv1d(256, 256, kernel_size=(15,), stride=(1,), padding=(7,), groups=256)
          (norm): BatchNorm1d(256, eps=1e-05, momentum=0.1, affine=True, track_running_stats=True)
          (pointwise_conv2): Conv1d(256, 256, kernel_size=(1,), stride=(1,))
          (activation): SiLU()
        )
        (norm_ff): LayerNorm((256,), eps=1e-05, elementwise_affine=True)
        (norm_mha): LayerNorm((256,), eps=1e-05, elementwise_affine=True)
        (norm_ff_macaron): LayerNorm((256,), eps=1e-05, elementwise_affine=True)
        (norm_conv): LayerNorm((256,), eps=1e-05, elementwise_affine=True)
        (norm_final): LayerNorm((256,), eps=1e-05, elementwise_affine=True)
        (dropout): Dropout(p=0.1, inplace=False)
        (concat_linear): Identity()
      )
      (7): ConformerEncoderLayer(
        (self_attn): RelPositionMultiHeadedAttention(
          (linear_q): Linear(in_features=256, out_features=256, bias=True)
          (linear_k): Linear(in_features=256, out_features=256, bias=True)
          (linear_v): Linear(in_features=256, out_features=256, bias=True)
          (linear_out): Linear(in_features=256, out_features=256, bias=True)
          (dropout): Dropout(p=0.1, inplace=False)
          (linear_pos): Linear(in_features=256, out_features=256, bias=False)
        )
        (feed_forward): PositionwiseFeedForward(
          (w_1): Linear(in_features=256, out_features=2048, bias=True)
          (activation): SiLU()
          (dropout): Dropout(p=0.1, inplace=False)
          (w_2): Linear(in_features=2048, out_features=256, bias=True)
        )
        (feed_forward_macaron): PositionwiseFeedForward(
          (w_1): Linear(in_features=256, out_features=2048, bias=True)
          (activation): SiLU()
          (dropout): Dropout(p=0.1, inplace=False)
          (w_2): Linear(in_features=2048, out_features=256, bias=True)
        )
        (conv_module): ConvolutionModule(
          (pointwise_conv1): Conv1d(256, 512, kernel_size=(1,), stride=(1,))
          (depthwise_conv): Conv1d(256, 256, kernel_size=(15,), stride=(1,), padding=(7,), groups=256)
          (norm): BatchNorm1d(256, eps=1e-05, momentum=0.1, affine=True, track_running_stats=True)
          (pointwise_conv2): Conv1d(256, 256, kernel_size=(1,), stride=(1,))
          (activation): SiLU()
        )
        (norm_ff): LayerNorm((256,), eps=1e-05, elementwise_affine=True)
        (norm_mha): LayerNorm((256,), eps=1e-05, elementwise_affine=True)
        (norm_ff_macaron): LayerNorm((256,), eps=1e-05, elementwise_affine=True)
        (norm_conv): LayerNorm((256,), eps=1e-05, elementwise_affine=True)
        (norm_final): LayerNorm((256,), eps=1e-05, elementwise_affine=True)
        (dropout): Dropout(p=0.1, inplace=False)
        (concat_linear): Identity()
      )
      (8): ConformerEncoderLayer(
        (self_attn): RelPositionMultiHeadedAttention(
          (linear_q): Linear(in_features=256, out_features=256, bias=True)
          (linear_k): Linear(in_features=256, out_features=256, bias=True)
          (linear_v): Linear(in_features=256, out_features=256, bias=True)
          (linear_out): Linear(in_features=256, out_features=256, bias=True)
          (dropout): Dropout(p=0.1, inplace=False)
          (linear_pos): Linear(in_features=256, out_features=256, bias=False)
        )
        (feed_forward): PositionwiseFeedForward(
          (w_1): Linear(in_features=256, out_features=2048, bias=True)
          (activation): SiLU()
          (dropout): Dropout(p=0.1, inplace=False)
          (w_2): Linear(in_features=2048, out_features=256, bias=True)
        )
        (feed_forward_macaron): PositionwiseFeedForward(
          (w_1): Linear(in_features=256, out_features=2048, bias=True)
          (activation): SiLU()
          (dropout): Dropout(p=0.1, inplace=False)
          (w_2): Linear(in_features=2048, out_features=256, bias=True)
        )
        (conv_module): ConvolutionModule(
          (pointwise_conv1): Conv1d(256, 512, kernel_size=(1,), stride=(1,))
          (depthwise_conv): Conv1d(256, 256, kernel_size=(15,), stride=(1,), padding=(7,), groups=256)
          (norm): BatchNorm1d(256, eps=1e-05, momentum=0.1, affine=True, track_running_stats=True)
          (pointwise_conv2): Conv1d(256, 256, kernel_size=(1,), stride=(1,))
          (activation): SiLU()
        )
        (norm_ff): LayerNorm((256,), eps=1e-05, elementwise_affine=True)
        (norm_mha): LayerNorm((256,), eps=1e-05, elementwise_affine=True)
        (norm_ff_macaron): LayerNorm((256,), eps=1e-05, elementwise_affine=True)
        (norm_conv): LayerNorm((256,), eps=1e-05, elementwise_affine=True)
        (norm_final): LayerNorm((256,), eps=1e-05, elementwise_affine=True)
        (dropout): Dropout(p=0.1, inplace=False)
        (concat_linear): Identity()
      )
      (9): ConformerEncoderLayer(
        (self_attn): RelPositionMultiHeadedAttention(
          (linear_q): Linear(in_features=256, out_features=256, bias=True)
          (linear_k): Linear(in_features=256, out_features=256, bias=True)
          (linear_v): Linear(in_features=256, out_features=256, bias=True)
          (linear_out): Linear(in_features=256, out_features=256, bias=True)
          (dropout): Dropout(p=0.1, inplace=False)
          (linear_pos): Linear(in_features=256, out_features=256, bias=False)
        )
        (feed_forward): PositionwiseFeedForward(
          (w_1): Linear(in_features=256, out_features=2048, bias=True)
          (activation): SiLU()
          (dropout): Dropout(p=0.1, inplace=False)
          (w_2): Linear(in_features=2048, out_features=256, bias=True)
        )
        (feed_forward_macaron): PositionwiseFeedForward(
          (w_1): Linear(in_features=256, out_features=2048, bias=True)
          (activation): SiLU()
          (dropout): Dropout(p=0.1, inplace=False)
          (w_2): Linear(in_features=2048, out_features=256, bias=True)
        )
        (conv_module): ConvolutionModule(
          (pointwise_conv1): Conv1d(256, 512, kernel_size=(1,), stride=(1,))
          (depthwise_conv): Conv1d(256, 256, kernel_size=(15,), stride=(1,), padding=(7,), groups=256)
          (norm): BatchNorm1d(256, eps=1e-05, momentum=0.1, affine=True, track_running_stats=True)
          (pointwise_conv2): Conv1d(256, 256, kernel_size=(1,), stride=(1,))
          (activation): SiLU()
        )
        (norm_ff): LayerNorm((256,), eps=1e-05, elementwise_affine=True)
        (norm_mha): LayerNorm((256,), eps=1e-05, elementwise_affine=True)
        (norm_ff_macaron): LayerNorm((256,), eps=1e-05, elementwise_affine=True)
        (norm_conv): LayerNorm((256,), eps=1e-05, elementwise_affine=True)
        (norm_final): LayerNorm((256,), eps=1e-05, elementwise_affine=True)
        (dropout): Dropout(p=0.1, inplace=False)
        (concat_linear): Identity()
      )
      (10): ConformerEncoderLayer(
        (self_attn): RelPositionMultiHeadedAttention(
          (linear_q): Linear(in_features=256, out_features=256, bias=True)
          (linear_k): Linear(in_features=256, out_features=256, bias=True)
          (linear_v): Linear(in_features=256, out_features=256, bias=True)
          (linear_out): Linear(in_features=256, out_features=256, bias=True)
          (dropout): Dropout(p=0.1, inplace=False)
          (linear_pos): Linear(in_features=256, out_features=256, bias=False)
        )
        (feed_forward): PositionwiseFeedForward(
          (w_1): Linear(in_features=256, out_features=2048, bias=True)
          (activation): SiLU()
          (dropout): Dropout(p=0.1, inplace=False)
          (w_2): Linear(in_features=2048, out_features=256, bias=True)
        )
        (feed_forward_macaron): PositionwiseFeedForward(
          (w_1): Linear(in_features=256, out_features=2048, bias=True)
          (activation): SiLU()
          (dropout): Dropout(p=0.1, inplace=False)
          (w_2): Linear(in_features=2048, out_features=256, bias=True)
        )
        (conv_module): ConvolutionModule(
          (pointwise_conv1): Conv1d(256, 512, kernel_size=(1,), stride=(1,))
          (depthwise_conv): Conv1d(256, 256, kernel_size=(15,), stride=(1,), padding=(7,), groups=256)
          (norm): BatchNorm1d(256, eps=1e-05, momentum=0.1, affine=True, track_running_stats=True)
          (pointwise_conv2): Conv1d(256, 256, kernel_size=(1,), stride=(1,))
          (activation): SiLU()
        )
        (norm_ff): LayerNorm((256,), eps=1e-05, elementwise_affine=True)
        (norm_mha): LayerNorm((256,), eps=1e-05, elementwise_affine=True)
        (norm_ff_macaron): LayerNorm((256,), eps=1e-05, elementwise_affine=True)
        (norm_conv): LayerNorm((256,), eps=1e-05, elementwise_affine=True)
        (norm_final): LayerNorm((256,), eps=1e-05, elementwise_affine=True)
        (dropout): Dropout(p=0.1, inplace=False)
        (concat_linear): Identity()
      )
      (11): ConformerEncoderLayer(
        (self_attn): RelPositionMultiHeadedAttention(
          (linear_q): Linear(in_features=256, out_features=256, bias=True)
          (linear_k): Linear(in_features=256, out_features=256, bias=True)
          (linear_v): Linear(in_features=256, out_features=256, bias=True)
          (linear_out): Linear(in_features=256, out_features=256, bias=True)
          (dropout): Dropout(p=0.1, inplace=False)
          (linear_pos): Linear(in_features=256, out_features=256, bias=False)
        )
        (feed_forward): PositionwiseFeedForward(
          (w_1): Linear(in_features=256, out_features=2048, bias=True)
          (activation): SiLU()
          (dropout): Dropout(p=0.1, inplace=False)
          (w_2): Linear(in_features=2048, out_features=256, bias=True)
        )
        (feed_forward_macaron): PositionwiseFeedForward(
          (w_1): Linear(in_features=256, out_features=2048, bias=True)
          (activation): SiLU()
          (dropout): Dropout(p=0.1, inplace=False)
          (w_2): Linear(in_features=2048, out_features=256, bias=True)
        )
        (conv_module): ConvolutionModule(
          (pointwise_conv1): Conv1d(256, 512, kernel_size=(1,), stride=(1,))
          (depthwise_conv): Conv1d(256, 256, kernel_size=(15,), stride=(1,), padding=(7,), groups=256)
          (norm): BatchNorm1d(256, eps=1e-05, momentum=0.1, affine=True, track_running_stats=True)
          (pointwise_conv2): Conv1d(256, 256, kernel_size=(1,), stride=(1,))
          (activation): SiLU()
        )
        (norm_ff): LayerNorm((256,), eps=1e-05, elementwise_affine=True)
        (norm_mha): LayerNorm((256,), eps=1e-05, elementwise_affine=True)
        (norm_ff_macaron): LayerNorm((256,), eps=1e-05, elementwise_affine=True)
        (norm_conv): LayerNorm((256,), eps=1e-05, elementwise_affine=True)
        (norm_final): LayerNorm((256,), eps=1e-05, elementwise_affine=True)
        (dropout): Dropout(p=0.1, inplace=False)
        (concat_linear): Identity()
      )
    )
  )
  (decoder): BiTransformerDecoder(
    (left_decoder): TransformerDecoder(
      (embed): Sequential(
        (0): Embedding(5002, 256)
        (1): PositionalEncoding(
          (dropout): Dropout(p=0.1, inplace=False)
        )
      )
      (after_norm): LayerNorm((256,), eps=1e-05, elementwise_affine=True)
      (output_layer): Linear(in_features=256, out_features=5002, bias=True)
      (decoders): ModuleList(
        (0): DecoderLayer(
          (self_attn): MultiHeadedAttention(
            (linear_q): Linear(in_features=256, out_features=256, bias=True)
            (linear_k): Linear(in_features=256, out_features=256, bias=True)
            (linear_v): Linear(in_features=256, out_features=256, bias=True)
            (linear_out): Linear(in_features=256, out_features=256, bias=True)
            (dropout): Dropout(p=0.1, inplace=False)
          )
          (src_attn): MultiHeadedAttention(
            (linear_q): Linear(in_features=256, out_features=256, bias=True)
            (linear_k): Linear(in_features=256, out_features=256, bias=True)
            (linear_v): Linear(in_features=256, out_features=256, bias=True)
            (linear_out): Linear(in_features=256, out_features=256, bias=True)
            (dropout): Dropout(p=0.1, inplace=False)
          )
          (feed_forward): PositionwiseFeedForward(
            (w_1): Linear(in_features=256, out_features=2048, bias=True)
            (activation): ReLU()
            (dropout): Dropout(p=0.1, inplace=False)
            (w_2): Linear(in_features=2048, out_features=256, bias=True)
          )
          (norm1): LayerNorm((256,), eps=1e-05, elementwise_affine=True)
          (norm2): LayerNorm((256,), eps=1e-05, elementwise_affine=True)
          (norm3): LayerNorm((256,), eps=1e-05, elementwise_affine=True)
          (dropout): Dropout(p=0.1, inplace=False)
          (concat_linear1): Identity()
          (concat_linear2): Identity()
        )
        (1): DecoderLayer(
          (self_attn): MultiHeadedAttention(
            (linear_q): Linear(in_features=256, out_features=256, bias=True)
            (linear_k): Linear(in_features=256, out_features=256, bias=True)
            (linear_v): Linear(in_features=256, out_features=256, bias=True)
            (linear_out): Linear(in_features=256, out_features=256, bias=True)
            (dropout): Dropout(p=0.1, inplace=False)
          )
          (src_attn): MultiHeadedAttention(
            (linear_q): Linear(in_features=256, out_features=256, bias=True)
            (linear_k): Linear(in_features=256, out_features=256, bias=True)
            (linear_v): Linear(in_features=256, out_features=256, bias=True)
            (linear_out): Linear(in_features=256, out_features=256, bias=True)
            (dropout): Dropout(p=0.1, inplace=False)
          )
          (feed_forward): PositionwiseFeedForward(
            (w_1): Linear(in_features=256, out_features=2048, bias=True)
            (activation): ReLU()
            (dropout): Dropout(p=0.1, inplace=False)
            (w_2): Linear(in_features=2048, out_features=256, bias=True)
          )
          (norm1): LayerNorm((256,), eps=1e-05, elementwise_affine=True)
          (norm2): LayerNorm((256,), eps=1e-05, elementwise_affine=True)
          (norm3): LayerNorm((256,), eps=1e-05, elementwise_affine=True)
          (dropout): Dropout(p=0.1, inplace=False)
          (concat_linear1): Identity()
          (concat_linear2): Identity()
        )
        (2): DecoderLayer(
          (self_attn): MultiHeadedAttention(
            (linear_q): Linear(in_features=256, out_features=256, bias=True)
            (linear_k): Linear(in_features=256, out_features=256, bias=True)
            (linear_v): Linear(in_features=256, out_features=256, bias=True)
            (linear_out): Linear(in_features=256, out_features=256, bias=True)
            (dropout): Dropout(p=0.1, inplace=False)
          )
          (src_attn): MultiHeadedAttention(
            (linear_q): Linear(in_features=256, out_features=256, bias=True)
            (linear_k): Linear(in_features=256, out_features=256, bias=True)
            (linear_v): Linear(in_features=256, out_features=256, bias=True)
            (linear_out): Linear(in_features=256, out_features=256, bias=True)
            (dropout): Dropout(p=0.1, inplace=False)
          )
          (feed_forward): PositionwiseFeedForward(
            (w_1): Linear(in_features=256, out_features=2048, bias=True)
            (activation): ReLU()
            (dropout): Dropout(p=0.1, inplace=False)
            (w_2): Linear(in_features=2048, out_features=256, bias=True)
          )
          (norm1): LayerNorm((256,), eps=1e-05, elementwise_affine=True)
          (norm2): LayerNorm((256,), eps=1e-05, elementwise_affine=True)
          (norm3): LayerNorm((256,), eps=1e-05, elementwise_affine=True)
          (dropout): Dropout(p=0.1, inplace=False)
          (concat_linear1): Identity()
          (concat_linear2): Identity()
        )
      )
    )
    (right_decoder): TransformerDecoder(
      (embed): Sequential(
        (0): Embedding(5002, 256)
        (1): PositionalEncoding(
          (dropout): Dropout(p=0.1, inplace=False)
        )
      )
      (after_norm): LayerNorm((256,), eps=1e-05, elementwise_affine=True)
      (output_layer): Linear(in_features=256, out_features=5002, bias=True)
      (decoders): ModuleList(
        (0): DecoderLayer(
          (self_attn): MultiHeadedAttention(
            (linear_q): Linear(in_features=256, out_features=256, bias=True)
            (linear_k): Linear(in_features=256, out_features=256, bias=True)
            (linear_v): Linear(in_features=256, out_features=256, bias=True)
            (linear_out): Linear(in_features=256, out_features=256, bias=True)
            (dropout): Dropout(p=0.1, inplace=False)
          )
          (src_attn): MultiHeadedAttention(
            (linear_q): Linear(in_features=256, out_features=256, bias=True)
            (linear_k): Linear(in_features=256, out_features=256, bias=True)
            (linear_v): Linear(in_features=256, out_features=256, bias=True)
            (linear_out): Linear(in_features=256, out_features=256, bias=True)
            (dropout): Dropout(p=0.1, inplace=False)
          )
          (feed_forward): PositionwiseFeedForward(
            (w_1): Linear(in_features=256, out_features=2048, bias=True)
            (activation): ReLU()
            (dropout): Dropout(p=0.1, inplace=False)
            (w_2): Linear(in_features=2048, out_features=256, bias=True)
          )
          (norm1): LayerNorm((256,), eps=1e-05, elementwise_affine=True)
          (norm2): LayerNorm((256,), eps=1e-05, elementwise_affine=True)
          (norm3): LayerNorm((256,), eps=1e-05, elementwise_affine=True)
          (dropout): Dropout(p=0.1, inplace=False)
          (concat_linear1): Identity()
          (concat_linear2): Identity()
        )
        (1): DecoderLayer(
          (self_attn): MultiHeadedAttention(
            (linear_q): Linear(in_features=256, out_features=256, bias=True)
            (linear_k): Linear(in_features=256, out_features=256, bias=True)
            (linear_v): Linear(in_features=256, out_features=256, bias=True)
            (linear_out): Linear(in_features=256, out_features=256, bias=True)
            (dropout): Dropout(p=0.1, inplace=False)
          )
          (src_attn): MultiHeadedAttention(
            (linear_q): Linear(in_features=256, out_features=256, bias=True)
            (linear_k): Linear(in_features=256, out_features=256, bias=True)
            (linear_v): Linear(in_features=256, out_features=256, bias=True)
            (linear_out): Linear(in_features=256, out_features=256, bias=True)
            (dropout): Dropout(p=0.1, inplace=False)
          )
          (feed_forward): PositionwiseFeedForward(
            (w_1): Linear(in_features=256, out_features=2048, bias=True)
            (activation): ReLU()
            (dropout): Dropout(p=0.1, inplace=False)
            (w_2): Linear(in_features=2048, out_features=256, bias=True)
          )
          (norm1): LayerNorm((256,), eps=1e-05, elementwise_affine=True)
          (norm2): LayerNorm((256,), eps=1e-05, elementwise_affine=True)
          (norm3): LayerNorm((256,), eps=1e-05, elementwise_affine=True)
          (dropout): Dropout(p=0.1, inplace=False)
          (concat_linear1): Identity()
          (concat_linear2): Identity()
        )
        (2): DecoderLayer(
          (self_attn): MultiHeadedAttention(
            (linear_q): Linear(in_features=256, out_features=256, bias=True)
            (linear_k): Linear(in_features=256, out_features=256, bias=True)
            (linear_v): Linear(in_features=256, out_features=256, bias=True)
            (linear_out): Linear(in_features=256, out_features=256, bias=True)
            (dropout): Dropout(p=0.1, inplace=False)
          )
          (src_attn): MultiHeadedAttention(
            (linear_q): Linear(in_features=256, out_features=256, bias=True)
            (linear_k): Linear(in_features=256, out_features=256, bias=True)
            (linear_v): Linear(in_features=256, out_features=256, bias=True)
            (linear_out): Linear(in_features=256, out_features=256, bias=True)
            (dropout): Dropout(p=0.1, inplace=False)
          )
          (feed_forward): PositionwiseFeedForward(
            (w_1): Linear(in_features=256, out_features=2048, bias=True)
            (activation): ReLU()
            (dropout): Dropout(p=0.1, inplace=False)
            (w_2): Linear(in_features=2048, out_features=256, bias=True)
          )
          (norm1): LayerNorm((256,), eps=1e-05, elementwise_affine=True)
          (norm2): LayerNorm((256,), eps=1e-05, elementwise_affine=True)
          (norm3): LayerNorm((256,), eps=1e-05, elementwise_affine=True)
          (dropout): Dropout(p=0.1, inplace=False)
          (concat_linear1): Identity()
          (concat_linear2): Identity()
        )
      )
    )
  )
  (ctc): CTC(
    (ctc_lo): Linear(in_features=256, out_features=5002, bias=True)
    (ctc_loss): CTCLoss()
  )
  (context_bias): ContextBias(
    (context_extractor): BLSTM(
      (word_embedding): Embedding(5002, 256)
      (sen_rnn): LSTM(256, 256, batch_first=True, bidirectional=True)
    )
    (context_encoder): Sequential(
      (0): Linear(in_features=1024, out_features=256, bias=True)
      (1): LayerNorm((256,), eps=1e-05, elementwise_affine=True)
    )
    (encoder_bias): MultiHeadedAttention(
      (linear_q): Linear(in_features=256, out_features=256, bias=True)
      (linear_k): Linear(in_features=256, out_features=256, bias=True)
      (linear_v): Linear(in_features=256, out_features=256, bias=True)
      (linear_out): Linear(in_features=256, out_features=256, bias=True)
      (dropout): Dropout(p=0.0, inplace=False)
    )
    (predictor_bias): MultiHeadedAttention(
      (linear_q): Linear(in_features=256, out_features=256, bias=True)
      (linear_k): Linear(in_features=256, out_features=256, bias=True)
      (linear_v): Linear(in_features=256, out_features=256, bias=True)
      (linear_out): Linear(in_features=256, out_features=256, bias=True)
      (dropout): Dropout(p=0.0, inplace=False)
    )
    (hw_bias): MultiHeadedAttention(
      (linear_q): Linear(in_features=100, out_features=100, bias=True)
      (linear_k): Linear(in_features=100, out_features=100, bias=True)
      (linear_v): Linear(in_features=100, out_features=100, bias=True)
      (linear_out): Linear(in_features=100, out_features=100, bias=True)
      (dropout): Dropout(p=0.0, inplace=False)
    )
    (encoder_norm): LayerNorm((256,), eps=1e-05, elementwise_affine=True)
    (encoder_bias_norm): LayerNorm((256,), eps=1e-05, elementwise_affine=True)
    (encoder_ffn): Linear(in_features=512, out_features=256, bias=True)
    (encoder_bias_combine): Linear(in_features=512, out_features=256, bias=True)
    (encdoer_bias_bias_norm): LayerNorm((256,), eps=1e-05, elementwise_affine=True)
    (encdoer_bias_out_norm): LayerNorm((256,), eps=1e-05, elementwise_affine=True)
    (predictor_bias_combine): Linear(in_features=512, out_features=256, bias=True)
    (predictor_bias_bias_norm): LayerNorm((256,), eps=1e-05, elementwise_affine=True)
    (predictor_bias_out_norm): LayerNorm((256,), eps=1e-05, elementwise_affine=True)
    (hw_bias_norm): LayerNorm((100,), eps=1e-05, elementwise_affine=True)
    (hw_output_layer): Linear(in_features=100, out_features=2, bias=True)
    (hw_output_layer_enc): Linear(in_features=256, out_features=100, bias=True)
    (hw_output_layer_dec): Linear(in_features=256, out_features=100, bias=True)
  )
  (predictor): RNNPredictor(
    (embed): Embedding(5002, 256)
    (dropout): Dropout(p=0.1, inplace=False)
    (rnn): LSTM(256, 256, num_layers=2, batch_first=True, dropout=0.1)
    (projection): Linear(in_features=256, out_features=256, bias=True)
  )
  (joint): TransducerJoint(
    (activatoin): Tanh()
    (enc_ffn): Linear(in_features=256, out_features=512, bias=True)
    (pred_ffn): Linear(in_features=256, out_features=512, bias=True)
    (ffn_out): Linear(in_features=512, out_features=5002, bias=True)
  )
  (hw_criterion): CrossEntropyLoss()
  (criterion_att): LabelSmoothingLoss(
    (criterion): KLDivLoss()
  )
)
the number of model params: 58195794
2023-02-25 14:53:15,747 DEBUG TRAIN Batch 11/0 loss 434.559235 loss_att 72.900795 loss_ctc 1131.058350 loss_rnnt 413.650665 hw_loss 0.700651 lr 0.00052195 rank 3
2023-02-25 14:53:15,765 DEBUG TRAIN Batch 11/0 loss 191.435104 loss_att 76.939270 loss_ctc 488.988068 loss_rnnt 174.330704 hw_loss 0.618432 lr 0.00052195 rank 1
…
